models/nerf_model_with_depth_1.pth (torch, 103848 bytes, 6 tensors)

mlp.0.weight f4 [128, 63]
0	0x3dae5ab8	0.08513397
1	0xbdecc630	-0.11561239
2	0x3cb0e51b	0.021593621
3	0xbd3e1fe4	-0.046417132
4	0x3db11675	0.086468615
5	0x3da38569	0.0798443
6	0x3dacfb74	0.084463984
7	0x3def5c6f	0.11687552
8	0xbaf31916	-0.0018546905
9	0x3b1e652c	0.002416919
10	0x3d97b118	0.07406825
11	0x3d5cbf27	0.053893235
12	0x3ce207aa	0.027591545
13	0x3c69d8bf	0.014272868
14	0x3decd59c	0.1156418
15	0x3cd01213	0.025399243
16	0xbd43c7c8	-0.047797948
17	0xbd9b1831	-0.075729735
18	0x3dcbfee5	0.09960727
19	0x3ddedc92	0.10881914
20	0x3d7364c8	0.059422284
21	0x3da51bb5	0.08061925
22	0x3d648792	0.055793352
23	0xbe23c7e1	-0.15994217
24	0x3dd831cd	0.10556374
25	0x3d8262d6	0.06366508
26	0x3ca0b255	0.019616285
27	0x3a9d54c1	0.0012003408
28	0x3b06c908	0.0020566601
29	0x3d6eeb8f	0.058330115
30	0xbca196b8	-0.019725189
31	0x3c10ff9e	0.008850006
32	0x3d58d4af	0.052937206
33	0xbcbd3ae7	-0.023099376
34	0x3dffb42b	0.12485536
35	0xbb930a82	-0.0044873366
36	0x3d5ce401	0.05392838
37	0x3dba1b98	0.09087294
38	0x3dc15a38	0.09441036
39	0xbccbf6f8	-0.024898037
40	0xbdeaca2d	-0.11464343
41	0xbd26afc5	-0.04069497
42	0x3dc21561	0.09476734
43	0xbdbdd905	-0.09269909
44	0xbd5fd7f4	-0.05464931
45	0xbde52301	-0.11188317
46	0x3d291a56	0.04128488
47	0xbd846b52	-0.06465782
48	0x3df458b2	0.1193098
49	0x3e08cd23	0.13359503
50	0xbc0c08be	-0.008547006
51	0x3d024a1e	0.031808965
52	0xbded01e3	-0.115726255
53	0xbcbe28b8	-0.023212776
54	0x3e12ae1c	0.1432423
55	0xbda4dcd9	-0.08049936
56	0x3d33a244	0.04385592
57	0xbd1a9b07	-0.0377455
58	0x3dc81bdf	0.09770941
59	0xbddadf69	-0.10687143
60	0xba8ff784	-0.00109838
61	0x3dc75177	0.09732335
62	0x3dd77587	0.105204634
63	0x3dace603	0.08442309
64	0x3bb8a173	0.0056344806
65	0x3c91a042	0.017776612
66	0x3d6bff44	0.057616487
67	0xbdcccdc5	-0.10000185
68	0x3cff6c9d	0.03117972
69	0xbce99f44	-0.028518327
70	0x3cec1d35	0.02882252
71	0xbc96c1cb	-0.018402955
72	0xbd5fae54	-0.05460961
73	0xbdfa5b4c	-0.12224445
74	0xbdeaf8cb	-0.11473235
75	0x3d6c77b5	0.05773135
76	0xbc73846f	-0.014863118
77	0xbdb82f24	-0.08993366
78	0xbb4e584a	-0.003148573
79	0xbc33efe4	-0.010982487
80	0x3e06e99d	0.13175054
81	0xbe1fd4b3	-0.15608482
82	0xbd9be986	-0.076129004
83	0xbdba0613	-0.0908319
84	0xbd0f3d0c	-0.03497033
85	0x3d66f046	0.056381486
86	0x3cdc7c0a	0.026914615
87	0x3d56420b	0.052309077
88	0xbd4de694	-0.050268725
89	0x3b2c4788	0.0026287753
90	0xbd9550ec	-0.07290825
91	0xbbe2b5e5	-0.006918656
92	0xbe0e9593	-0.13924246
93	0x3dae5fe5	0.08514384
94	0x3d20e9ac	0.039285347
95	0xbd6dfb53	-0.05810101
96	0xbdbe8167	-0.09302025
97	0xbda316cb	-0.07963332
98	0x3e54f0ad	0.20794936
99	0xbdb6549c	-0.08902857
100	0xbade0d34	-0.0016941191
101	0xbe15c876	-0.14627251
102	0xbdf8d5c1	-0.12150145
103	0x3de8e451	0.11371673
104	0xbe12ba29	-0.14328827
105	0xbdc251be	-0.09488247
106	0xbd8d9226	-0.06912641
107	0x3da0bae2	0.07848145
108	0xbdb11a63	-0.08647611
109	0xbdad6f12	-0.084684506
110	0x3d1be72b	0.038062256
111	0x3d6a0eb0	0.057142913
112	0xbd3ef863	-0.0466236
113	0x3d90d0a8	0.07071048
114	0x3d1d70dd	0.038437713
115	0xbdfebc7f	-0.124382965
116	0x3d0a19d4	0.033716038
117	0x3dbbc254	0.091679245
118	0x3d2820ed	0.041047025
119	0xbd0e21fa	-0.03470037
120	0x3c0e0d0b	0.008670102
121	0x3d215c4d	0.039394666
122	0xbd4ca6f5	-0.04996391
123	0x3d979d2f	0.07403027
124	0x3d8c58c6	0.0685287
125	0x3ca97636	0.02068625
126	0xbd6f0924	-0.058358327
127	0xbcf607bc	-0.030032985
128	0x3ceec5e6	0.0291471
129	0x3d7f5244	0.062334314
130	0x3cd24e4c	0.0256721
131	0xbd50ce29	-0.05097786
132	0xbe088de4	-0.13335377
133	0xbd82ccd6	-0.063867256
134	0x3d0e929b	0.034807783
135	0xbb6b1847	-0.0035872625
136	0xbc477730	-0.012174413
137	0x3e0672c4	0.13129717
138	0x3ca5b13d	0.020226115
139	0xbd55b27c	-0.05217217
140	0xbdd4d97b	-0.103930436
141	0xbd60bccc	-0.05486755
142	0x3d9dce29	0.077053376
143	0xbd6c6f88	-0.057723552
144	0xbdf31bca	-0.11870535
145	0x3d179023	0.037002694
146	0x3dc4c2b4	0.09607449
147	0x3d8f9c7f	0.07012271
148	0xbcdae893	-0.026722228
149	0xbbbb9228	-0.0057242103
150	0xbe0c1cfa	-0.13682929
151	0x3cbc983e	0.023021813
152	0x3cefc18f	0.0292671
153	0xbd254139	-0.040345404
154	0x3bff53af	0.0077919583
155	0xbcee5a69	-0.029095845
156	0x3c6889c6	0.014193004
157	0x3d97ee0f	0.07418453
158	0xbd873bac	-0.066031784
159	0xbdb3a01c	-0.08770773
160	0x3d5175d3	0.051137757
161	0x3d0e4f79	0.03474376
162	0xbc051e47	-0.008124894
163	0x3c2cb680	0.010541558
164	0x3d0df066	0.03465309
165	0xbd5668d6	-0.052346073
166	0x3d799480	0.060932636
167	0x3d1b1ad0	0.037867367
168	0xbd5444d1	-0.05182344
169	0x3d1226ad	0.035681415
170	0x3c09229b	0.008370067
171	0x3e0538f8	0.13010013
172	0x3da22835	0.07917825
173	0xbc8d5f1e	-0.01725727
174	0x3c27eaf6	0.01024889
175	0x3d043063	0.032272708
176	0xbd18aca2	-0.03727401
177	0xbd33de60	-0.043913245
178	0x3d10a116	0.035309874
179	0x3d750304	0.05981733
180	0x3d0c817d	0.034303177
181	0xbd8328cc	-0.06404266
182	0xbcf47872	-0.029842589
183	0xbc82dc90	-0.015974313
184	0x3d19a6d2	0.037512608
185	0x3d07a375	0.03311487
186	0x3ca769d3	0.020436203
187	0xbc439769	-0.011937954
188	0x3d825a9e	0.0636494
189	0x3d03fbcc	0.032222554
190	0x3d14606b	0.036224764
191	0xbd4bbb1d	-0.049738992
192	0xbba9404c	-0.0051651355
193	0x3cc1ac26	0.023641657
194	0xbafb52ed	-0.0019174494
195	0xbc8e4a32	-0.017369363
196	0x3d967207	0.07345968
197	0xbdfe9317	-0.12430399
198	0xbcae2f0b	-0.021262666
199	0x3d939da4	0.07207802
200	0x3dc30c9d	0.0952389
201	0x3c9fd369	0.019509988
202	0xbd3385d2	-0.043828793
203	0xbe1496e0	-0.14510679
204	0xbce3849f	-0.0277732
205	0x3d5d4492	0.054020472
206	0x3de3db57	0.1112582
207	0x3d1946e2	0.037421115
208	0x3d8fe6b3	0.07026424
209	0xbdbb526e	-0.091465816
210	0xbde6344d	-0.11240444
211	0xbd8013c0	-0.06253767
212	0xbd6314a3	-0.055439603
213	0xbd6d265e	-0.057897918
214	0x3bae92db	0.005327565
215	0xbd8f0cb3	-0.06984844
216	0xbdf22286	-0.11822991
217	0x3c6927e0	0.014230698
218	0x3dfe1dff	0.12408065
219	0xbc603dce	-0.01368661
220	0x3e1984f5	0.14992125
221	0x3b0df443	0.0021660484
222	0x3d918bd2	0.07106747
223	0x3cbfc10f	0.023407487
224	0xbc2e7183	-0.0106471805
225	0xbdceafb8	-0.100921094
226	0xbce060e6	-0.027389955
227	0x3d0bc46f	0.03412288
228	0xbd352200	-0.044221878
229	0xbd22a372	-0.039706655
230	0xbd219cbb	-0.03945611
231	0x3cecc032	0.02890024
232	0x3d86e84e	0.06587277
233	0x3db80b91	0.08986581
234	0x3d17ea28	0.037088543
235	0x3c9f0de3	0.019415801
236	0xbd514e36	-0.05109998
237	0xbd98f2f5	-0.074682154
238	0x3d0f2074	0.03494306
239	0xbd2dcec3	-0.04243351
240	0x3ba12ce3	0.004918681
241	0xbc8a4b5f	-0.016881643
242	0xbcf627e5	-0.03004832
243	0xbd8198f2	-0.06328
244	0x3d9ecbe5	0.077537335
245	0x3d9a2bfc	0.075279206
246	0xbcc288c1	-0.02374685
247	0xbc8ab484	-0.01693178
248	0x3d8503e3	0.06494882
249	0x3d2be9cd	0.041971017
250	0x3d3c5b1a	0.04598532
251	0xbd5651bc	-0.05232404
252	0xbd91cdc8	-0.07119328
253	0x3ca44b73	0.020055508
254	0xbe039cfa	-0.1285285
255	0xbcfa0e97	-0.030524535

mlp.0.bias f4 [128]
0	0xbd6a0fb9	-0.0571439
1	0xbc9a3dda	-0.018828321
2	0xbc8c0cf5	-0.017096022
3	0xbdc5abd9	-0.09651918
4	0x3c624c06	0.013812071
5	0x3dfbc4f3	0.122934245
6	0x3d72b94f	0.059258755
7	0xbc51636a	-0.01278005
8	0x3d645c44	0.055752054
9	0x3dd3b4b0	0.10337198
10	0x3db8d2bd	0.0902457
11	0x3aad5db5	0.0013226779
12	0xbd92556d	-0.071452
13	0xbd138dca	-0.036023892
14	0x3db18c5b	0.08669349
15	0x3bc35bf7	0.005961891
16	0xbc61be90	-0.013778344
17	0x3c920561	0.01782483
18	0x3cd301d5	0.02575771
19	0x3d1a3ec0	0.0376575
20	0x3dd179c9	0.10228307
21	0x3df0d3f4	0.11759177
22	0xbd249af2	-0.04018683
23	0x3dc13ec0	0.09435797
24	0xbd809a85	-0.06279472
25	0x3dbd3dc2	0.09240295
26	0x3d529e0e	0.051420264
27	0xbd0e521b	-0.03474627
28	0xbdb69825	-0.08915738
29	0xbdc8888b	-0.097916685
30	0xbbcac7a7	-0.006188351
31	0x3dc8356a	0.09775813
32	0xbd2afddd	-0.04174601
33	0xbda16417	-0.07880419
34	0xbdd0f7d9	-0.10203523
35	0x3dc1dd69	0.09466059
36	0x3b9bcfb7	0.004754986
37	0xbd054541	-0.03253675
38	0x3ddfae70	0.10921943
39	0xbdaeada7	-0.08529215
40	0xbdbc24c7	-0.09186702
41	0x3dbe857e	0.09302805
42	0x3da97f57	0.08276241
43	0xbe0d32f9	-0.13788976
44	0xbd643cb6	-0.05572196
45	0xbdf5bb27	-0.11998587
46	0xbdb3467c	-0.08753678
47	0xbe0ed375	-0.13947852
48	0x3cdee15b	0.027207067
49	0x3db44a38	0.088032186
50	0x3dbbe141	0.09173823
51	0x3e05e2ca	0.13074794
52	0xbe11e83b	-0.14248745
53	0xbd980ed8	-0.07424706
54	0x3d05a83e	0.03263115
55	0xbc32f6d6	-0.010923108
56	0x3dad52d3	0.08463063
57	0x3d4796c7	0.048727777
58	0xbd7f8e09	-0.062391315
59	0x3d2478ca	0.040154256
60	0x3cef7de8	0.029234841
61	0xbc954fa7	-0.018226458
62	0x3de8df89	0.11370761
63	0xbdec4329	-0.11536247
64	0x3df6695f	0.12031817
65	0x3dbd2f64	0.09237555
66	0x3e042060	0.12902975
67	0x3d0212cb	0.031756204
68	0xbe250124	-0.16113716
69	0x3d97d0bb	0.07412859
70	0x3d5d6f57	0.05406126
71	0xbd1295b9	-0.035787318
72	0xbd6b79ff	-0.05748939
73	0x3c9ce357	0.019151373
74	0xbdfec134	-0.12439194
75	0xbd339624	-0.043844357
76	0xbd9c2473	-0.0762414
77	0x3da9962f	0.08280598
78	0xbd2f4b1a	-0.04279623
79	0xbc19e1b0	-0.009392187
80	0x3cbb59db	0.022869995
81	0xbd6759a1	-0.05648196
82	0x3d3b53fd	0.045734394
83	0xbc173431	-0.009228752
84	0xbdf6ccdd	-0.12050793
85	0xbdee5ff0	-0.116393924
86	0xbc39c4ea	-0.011338452
87	0xbdce5dfd	-0.100765206
88	0xbd217a13	-0.03942306
89	0x3d5ed52a	0.054402508
90	0x3d79f110	0.06102091
91	0xbd7352cb	-0.05940513
92	0x3b509a1b	0.0031830135
93	0xbc310be5	-0.0108060585
94	0x3d94260b	0.072338186
95	0x3d2cb4b5	0.042164523
96	0xbd0c652e	-0.03427618
97	0x3bce5496	0.0062967045
98	0xbd1609c6	-0.036630414
99	0xbdcdf7ff	-0.10057067
100	0xbd9a7a75	-0.07542888
101	0xbd9fc7d4	-0.07801786
102	0xbd120810	-0.03565222
103	0xbdd7fdc3	-0.10546448
104	0xbb1e34d4	-0.0024140375
105	0x3d2e294a	0.042519845
106	0x3d802e12	0.06258787
107	0xbc9bf098	-0.019035622
108	0x3d49ffc1	0.04931617
109	0xbe04585f	-0.12924336
110	0xbe0fc171	-0.14038636
111	0xbe004469	-0.12526096
112	0x3d499946	0.04921844
113	0x3de8d196	0.113681
114	0xb9b132d6	-0.00033797947
115	0x3da4c0bc	0.08044574
116	0xbdfb2109	-0.1226216
117	0x3da2d1a5	0.07950143
118	0xbd123381	-0.03569365
119	0xbdf45d7a	-0.11931892
120	0x3d21e6e1	0.039526824
121	0x3dc440a6	0.09582643
122	0xbdca1627	-0.098675065
123	0x3d6a23e9	0.057163153
124	0x3cd00981	0.025395157
125	0x3db4a37a	0.08820243
126	0xbdf4bc8f	-0.11950027
127	0x3c856fff	0.016288755

mlp.2.weight f4 [128, 128]
0	0x3dab1c90	0.08355057
1	0xbde68a35	-0.1125683
2	0xbce6e219	-0.028183984
3	0xbcc91497	-0.02454595
4	0xbd954666	-0.07288818
5	0xbca49dcd	-0.020094777
6	0xbd70a306	-0.05874922
7	0x3db5ddd0	0.08880198
8	0x3d206fbb	0.039169054
9	0x3dd7b7ed	0.10533128
10	0xbd0a0988	-0.033700496
11	0x3d89a343	0.06720593
12	0xbd1acc31	-0.03779239
13	0x3bb0b573	0.005392724
14	0xbd2a7565	-0.041615862
15	0xbd5b5707	-0.053549793
16	0x3d142064	0.036163703
17	0xbd23fbf2	-0.040035196
18	0xbca41955	-0.02003161
19	0xbd3eddd2	-0.046598263
20	0x3c4b8fc8	0.012424417
21	0x3c2157ab	0.009847562
22	0x3b154b21	0.0022780376
23	0x3d99d3f3	0.07511129
24	0xbdc0a840	-0.09407091
25	0x3d4a943b	0.04945777
26	0x3d224e1f	0.039625283
27	0xbd9e7683	-0.07737448
28	0x3c4d4920	0.012529641
29	0x3da6842a	0.08130677
30	0xbdbc1835	-0.091843046
31	0xbdd669ea	-0.1046942
32	0x3d6d25d7	0.057897415
33	0xbd68a985	-0.05680229
34	0x3b77d65d	0.003781698
35	0xbd41a08e	-0.047272258
36	0xbcbfc842	-0.02341092
37	0xbdb7ed32	-0.08980788
38	0x3cdde2d6	0.027085703
39	0x3cf1bca8	0.029508904
40	0xbda63056	-0.08114688
41	0xbc4f0479	-0.012635344
42	0xbe103780	-0.14083672
43	0xbdeafb0c	-0.11473665
44	0xbda7f6dc	-0.082013816
45	0xbdc03660	-0.09385371
46	0xbd235fb5	-0.039886195
47	0x3bcbfc59	0.0062251505
48	0x3c8fede9	0.0175695
49	0xbc66d1c2	-0.014088096
50	0x39ae0740	0.00033193268
51	0x3c86c4c7	0.016451253
52	0xbd274e94	-0.040846422
53	0xbca71a22	-0.020398203
54	0x3d383f69	0.044982348
55	0xbcfc2273	-0.030778145
56	0xbc58980b	-0.013219844
57	0xbd8b4e0b	-0.06801995
58	0xbdee6a81	-0.11641408
59	0x3da42dab	0.08016523
60	0xbdbfeb5f	-0.09371065
61	0xbe192d10	-0.14958596
62	0xbd4b5117	-0.04963788
63	0x3ca3b2ec	0.019982778
64	0xbc387a1f	-0.011259585
65	0x3d3206ab	0.04346339
66	0xbde24265	-0.1104782
67	0xbde314f4	-0.11087981
68	0xbc0b749b	-0.008511688
69	0xbd9c6287	-0.0763598
70	0x3d03c634	0.032171443
71	0x3de7b4e5	0.113138
72	0x3d3dc465	0.046329875
73	0xbd1cc73d	-0.038275946
74	0xbd597a49	-0.053095136
75	0xbc32cacc	-0.010912608
76	0x3d204faf	0.039138492
77	0xbdc6a155	-0.096987404
78	0x3d850c48	0.06496483
79	0xbd839e6d	-0.06426702
80	0xbcc3dd59	-0.023909258
81	0x3d8a7d07	0.06762128
82	0x3bc9dabe	0.0061601093
83	0xbd7553c6	-0.059894346
84	0xbd7fe2f1	-0.062472288
85	0xbde1ddff	-0.110286705
86	0xbdbcad9d	-0.092128016
87	0xbc7b10b8	-0.01532381
88	0x3d864356	0.06555812
89	0xbd9871fd	-0.074436165
90	0xbc9cca97	-0.019139571
91	0x3d869694	0.06571689
92	0xbd962822	-0.073318735
93	0x3d49bf67	0.0492548
94	0xbbdc8fb3	-0.0067309975
95	0x3d64a33d	0.05581974
96	0xbc9d0282	-0.019166235
97	0xbda7baac	-0.08189902
98	0xbd8f16d1	-0.06986774
99	0xbc20fc9e	-0.009825854
100	0x3ba7cc17	0.005120765
101	0xbc91a9e8	-0.017781213
102	0xbded799d	-0.115954615
103	0x3d1df057	0.038559284
104	0xbe1b3af7	-0.15159212
105	0xbdbe6927	-0.092974
106	0xbd954a19	-0.07289524
107	0xbe0bc041	-0.13647558
108	0xba06dd35	-0.0005144657
109	0xba1fb64a	-0.0006092532
110	0xbd0e5693	-0.034750532
111	0xbe089b97	-0.13340603
112	0xbdebd41c	-0.11515066
113	0xbd9efcb1	-0.07763041
114	0x3d5436a8	0.051809937
115	0xbccc0751	-0.024905832
116	0xbc1746d7	-0.009233198
117	0xbd9f9664	-0.077923566
118	0xbd442099	-0.04788265
119	0xbbc10cc5	-0.005891415
120	0xbdb0bc04	-0.08629611
121	0x3da86ac9	0.08223493
122	0xbd1b7678	-0.037954777
123	0xbd433376	-0.0476565
124	0xbde1e856	-0.11030643
125	0x3d38efaa	0.045150436
126	0xbd6584f9	-0.056035016
127	0xbcc35e62	-0.023848716
128	0xbd065158	-0.03279242
129	0xbcadc725	-0.021213124
130	0xbd6e2f23	-0.05815042
131	0x3d683689	0.056692634
132	0xbcd54373	-0.026033139
133	0xbd40e830	-0.04709643
134	0xbd2f8942	-0.04285551
135	0xbd350977	-0.04419848
136	0xbdc22f12	-0.09481634
137	0x3c1bf61c	0.009519126
138	0x3b137688	0.002250107
139	0xbca18af3	-0.019719576
140	0xbdcc4ec0	-0.09975958
141	0x3ce13267	0.027489854
142	0x3ce35b6b	0.027753552
143	0xbdd4a5ae	-0.103831634
144	0xbcc11258	-0.023568317
145	0xbcc421c6	-0.023941886
146	0xbcb3b638	-0.021937475
147	0x3cb9370a	0.022609252
148	0x3d4a4c4a	0.04938916
149	0x3cf3e79c	0.029773526
150	0x3d7c0678	0.061529607
151	0xbd0be873	-0.034157228
152	0xbdc98775	-0.098402895
153	0xbd660b52	-0.05616314
154	0xbdc8125d	-0.097691275
155	0xba09c394	-0.00052552787
156	0xbc7d41a3	-0.015457544
157	0xbd437ad4	-0.04772456
158	0xbd66558c	-0.056233928
159	0xbdc2e729	-0.095167466
160	0xbdf0bebc	-0.1175513
161	0x3c50a645	0.012734954
162	0xbd2d223a	-0.04226897
163	0x3c27b1cd	0.010235262
164	0xbc8169ec	-0.015797578
165	0x3d6ab66d	0.05730288
166	0x3ba44fab	0.00501438
167	0xbd73287a	-0.059364773
168	0x3d762215	0.060091097
169	0xbdb737d1	-0.08946193
170	0xbda7319e	-0.081637606
171	0x3d83237f	0.06403255
172	0xbdb37b86	-0.087637946
173	0xbba55552	-0.0050455714
174	0x3d4d25de	0.05008494
175	0x3cd41da4	0.02589304
176	0x3c231ccc	0.009955596
177	0x3d84a0b1	0.06475962
178	0xbd330b78	-0.04371211
179	0xbc24666f	-0.010034188
180	0xbc7826aa	-0.015145937
181	0xbd5e05de	-0.054204814
182	0xbcb80544	-0.022463448
183	0xbdcdbc0f	-0.10045635
184	0x3d7256cb	0.059164803
185	0xbd2f2550	-0.042760193
186	0x3d7146f0	0.058905542
187	0x3c7b5325	0.015339647
188	0x3ae4a5c7	0.0017444425
189	0xbcab5793	-0.020915782
190	0xbdb87dcf	-0.09008371
191	0xba45a314	-0.0007539254
192	0x3d4ca995	0.049966414
193	0xbcdf92ed	-0.02729174
194	0x3d8b9a42	0.06816532
195	0xbcb533ed	-0.022119487
196	0x3c800d60	0.015631378
197	0xbd93f0b1	-0.072236426
198	0xbd5d8269	-0.054079447
199	0x3bb09414	0.005388746
200	0xbdd71827	-0.105026536
201	0xbd96186e	-0.07328878
202	0x3c57ef3d	0.013179597
203	0xbd2df4b3	-0.04246969
204	0xbdbb14ce	-0.091348276
205	0xbd51a897	-0.05118617
206	0xbda8cd83	-0.08242323
207	0xbdcfebfe	-0.10152434
208	0x3c8962f9	0.016770827
209	0x3c704b65	0.014666413
210	0x3c00136a	0.007817129
211	0xbd50ad98	-0.050946802
212	0xbdbf7b23	-0.09349658
213	0x3d0e71fd	0.034776676
214	0xbdbdba21	-0.09264017
215	0xbd483d32	-0.048886485
216	0xbbe6ca59	-0.0070431647
217	0xbd08e450	-0.03342086
218	0xbd70fd5c	-0.058835372
219	0x3ce4acda	0.027914453
220	0xbdae361e	-0.08506416
221	0xbc005f91	-0.007835285
222	0x3d4c8698	0.049933046
223	0xbd4bc2e3	-0.049746405
224	0x3d8408a4	0.064469606
225	0x3cd6a22d	0.026200378
226	0xbbf68f9f	-0.007524445
227	0x3d079ff1	0.033111516
228	0xbdcf4a7f	-0.10121631
229	0x3b908a0e	0.0044109887
230	0xbd4bd254	-0.04976113
231	0xbc6c6ad3	-0.014429766
232	0x3be67594	0.0070330594
233	0xbd2bf63f	-0.041982885
234	0x3a7d38c7	0.00096596446
235	0xbd43c1e1	-0.04779232
236	0x3c4bce66	0.012439346
237	0xbd479fd0	-0.048736393
238	0x3d95c3ea	0.07312758
239	0xbdb51fdf	-0.088439696
240	0xba35cb40	-0.00069348887
241	0xbdbd6e0f	-0.09249508
242	0xbd2ff951	-0.042962376
243	0x3d168a01	0.036752705
244	0xbdb42979	-0.08796973
245	0xbdc89541	-0.09794093
246	0xbd650a5e	-0.05591809
247	0x3c4c938e	0.012486352
248	0x3c04855e	0.008088438
249	0xbd264870	-0.040596426
250	0xbd726b15	-0.059184153
251	0x3ce3666a	0.027758796
252	0x3d4f8a8f	0.05066925
253	0xbca3b0cf	-0.01998177
254	0x3d4742d0	0.0486477
255	0xbd4ef864	-0.050529853

mlp.2.bias f4 [128]
0	0x3d1b3539	0.037892554
1	0x3c3cad23	0.011515888
2	0xbc6f75e4	-0.01461551
3	0x3d0382b9	0.03210709
4	0x3ccc02d9	0.024903702
5	0xbc8a88e3	-0.016910976
6	0xbdf55463	-0.11978986
7	0xbd7c0eec	-0.061537668
8	0x3c6cc095	0.014450212
9	0x3ca4dff6	0.020126324
10	0x3df138cc	0.11778411
11	0x3d434249	0.047670636
12	0x3c98ebd0	0.018667132
13	0x3ca0b3cf	0.01961699
14	0xbd5bd166	-0.053666495
15	0x3c41ada0	0.011821181
16	0xbd6b7646	-0.05748584
17	0xbd00c34e	-0.031436257
18	0x3d9496bb	0.07255312
19	0x3dd756d7	0.1051461
20	0xbd9ffa37	-0.078113966
21	0x3db00430	0.08594549
22	0xbd962677	-0.07331555
23	0x3c8d428d	0.017243648
24	0x3caadec9	0.020858185
25	0x3c9cfb0c	0.019162677
26	0x3e08b8c8	0.13351738
27	0xbd95ef43	-0.07321026
28	0x3d6109c5	0.054940958
29	0xbc9c6f92	-0.01909617
30	0x3c40b7c0	0.011762559
31	0x3af4474b	0.001863697
32	0xbd965659	-0.07340688
33	0xbd85af7c	-0.065276116
34	0x3c0eea4e	0.008722855
35	0xbd221790	-0.039573252
36	0xbd27e5ab	-0.040990513
37	0xbda5319b	-0.08066102
38	0x3d774e1f	0.060377236
39	0x3da5f2c8	0.081029475
40	0xbc2f7e08	-0.010711201
41	0x3cc1516c	0.023598395
42	0x3d7639af	0.060113605
43	0x3c8f3ec4	0.017485984
44	0xbc8e4398	-0.017366216
45	0x3bf41354	0.007448593
46	0x3d817e51	0.06322921
47	0xbafed341	-0.0019441621
48	0xbd914dd8	-0.07094926
49	0x3cc8430c	0.024446033
50	0xbbad4d05	-0.0052887225
51	0xbd2a565f	-0.041586276
52	0x3d5983f1	0.053104345
53	0x3d7372a0	0.059435487
54	0x3cb12b4b	0.021627089
55	0xbdcee897	-0.10102957
56	0xbdc1d60b	-0.094646536
57	0xbbf4672c	-0.007458588
58	0xbd1d8c60	-0.03846395
59	0x3ce557da	0.027995992
60	0x3dbb8e96	0.091580555
61	0x3d473ea1	0.048643712
62	0x3cad2a31	0.021138282
63	0x3dcd6592	0.100291386
64	0xbb5df428	-0.0033867452
65	0x3db43b32	0.08800353
66	0x3c852a85	0.016255626
67	0x3cabb016	0.020957988
68	0x3c9d7506	0.01922084
69	0xbce9beff	-0.028533457
70	0x3b6b7a68	0.0035931114
71	0xbc0e0404	-0.00866795
72	0x3d233614	0.039846495
73	0xbc868817	-0.016422315
74	0x3d264f0e	0.040602736
75	0x3c42742a	0.011868516
76	0x3d0a5d7f	0.03378057
77	0xbd042cdc	-0.032269344
78	0xbd7bfff7	-0.061523404
79	0x3df09f23	0.11749103
80	0x3d6755f5	0.05647846
81	0x3ce56ea1	0.028006854
82	0xbd2be22f	-0.041963752
83	0x3d93e2fb	0.072210275
84	0xbc95ca5c	-0.018284969
85	0x3d18203c	0.037140116
86	0x3dc36312	0.095403805
87	0x3d7a8934	0.061166003
88	0x3d5b1ccc	0.05349426
89	0x3da12628	0.07868606
90	0x3d30bab1	0.043146793
91	0xbcb2cfe8	-0.021827653
92	0xba8f9495	-0.0010954315
93	0xbdcb6e30	-0.09933126
94	0xbc90ac37	-0.017660243
95	0x3cca8658	0.024722263
96	0xbd1af9e0	-0.037835956
97	0xbc8a5e86	-0.016890775
98	0xbd08e0d7	-0.03341755
99	0xbd4429e0	-0.047891498
100	0x3d8c6142	0.06854488
101	0xbdcffb3c	-0.10155341
102	0xbd52ba0b	-0.051446956
103	0x39b57a3c	0.00034614082
104	0x3cad3feb	0.021148643
105	0xbdbdf003	-0.09274294
106	0x3dcbec4a	0.09957178
107	0x3c5afb53	0.013365584
108	0x3c24587a	0.01003086
109	0xbc514dd3	-0.012774902
110	0xbd1d0e73	-0.038343858
111	0x3d5694bc	0.052387938
112	0xbcbf6df5	-0.023367861
113	0xbd27dc39	-0.040981505
114	0xbd4d6509	-0.050145183
115	0x3d422c27	0.04740539
116	0xbd5f56f3	-0.05452628
117	0xbd65baa3	-0.056086194
118	0x3d164170	0.0366835
119	0x3ae1b19f	0.0017219073
120	0xbcd2c0e7	-0.025726749
121	0x3d384a45	0.044992704
122	0xbd8bbc1c	-0.068229884
123	0xbdac6084	-0.084168464
124	0x3d8bed49	0.06832368
125	0x3dbf45d4	0.093394905
126	0x3d0f2178	0.034944028
127	0x3d815787	0.06315523

mlp.4.weight f4 [4, 128]
0	0x3ea4db45	0.3219854
1	0xbd1d9968	-0.038476378
2	0x3dc88c7a	0.09792419
3	0xbce38600	-0.027773857
4	0xbe464c64	-0.19365078
5	0x3b30f447	0.002700107
6	0x3e6d26c2	0.23159316
7	0xbd9dc548	-0.07703644
8	0x3cec8a2b	0.028874477
9	0xbe667e38	-0.22509086
10	0xbe750853	-0.23928957
11	0xbe4f8903	-0.2026711
12	0xbd52c346	-0.05145576
13	0x3e9df1b6	0.30848473
14	0xbd1bf65f	-0.038076755
15	0x3e8ac982	0.27106863
16	0xbccd09b6	-0.025029045
17	0x3e6329bf	0.22183894
18	0xbe7177ae	-0.2358081
19	0xbe0d42ec	-0.1379506
20	0xbd93e0c6	-0.072206065
21	0xbe1751f3	-0.14777355
22	0xbd073639	-0.033010695
23	0xbd52b5fd	-0.05144309
24	0x3d1f03b2	0.038821883
25	0xbddaef77	-0.106902055
26	0x3c41bbb4	0.011824537
27	0x3d7f02c2	0.06225849
28	0xbe641b3d	-0.22276016
29	0x3d57c0bf	0.05267405
30	0xbd904141	-0.07043696
31	0xbd85f4b4	-0.06540814
32	0xbdae89c8	-0.085223734
33	0x3d72427b	0.059145432
34	0xbdb9268d	-0.09040556
35	0xbdb49262	-0.08816983
36	0x3d2245b9	0.039617274
37	0x3e804809	0.25054958
38	0xbe35caf2	-0.17753199
39	0xbaf8fd33	-0.0018996358
40	0x3c1b5b6c	0.009482246
41	0xbe5166f0	-0.20449424
42	0x3e4b241e	0.19837996
43	0x3d8fc3cb	0.070197664
44	0xbd826389	-0.06366641
45	0xbdfed9c3	-0.124438785
46	0xbe426949	-0.18985476
47	0xbdb174e1	-0.08664871
48	0x3e947ff3	0.29003868
49	0xbdb56c6d	-0.08858571
50	0xbd0fcccc	-0.03510742
51	0x3d3ef0ec	0.04661648
52	0xbcde1db9	-0.027113782
53	0xbe05e020	-0.13073778
54	0x3d9720e9	0.07379324
55	0x3b56d32c	0.0032779677
56	0x3cae23d1	0.021257313
57	0xbccb82e0	-0.02484268
58	0xbccd0c26	-0.025030207
59	0x3df9a286	0.12189202
60	0xbe27aea7	-0.16375218
61	0xbcb65deb	-0.02226158
62	0xbe8b2e5f	-0.27183816
63	0xbdff3780	-0.12461758
64	0x3dcc193f	0.09965753
65	0xbe5c8c9a	-0.2153801
66	0x3d461aba	0.048365332
67	0xbd4fff29	-0.05078045
68	0x3c8b6147	0.017014159
69	0xbd72c46b	-0.05926935
70	0xbd93a47c	-0.07209107
71	0xbd16db1e	-0.03683006
72	0x3e1d3d7e	0.15355489
73	0xbd046c77	-0.032330003
74	0xbc7b8f62	-0.015354009
75	0x3c61851a	0.013764644
76	0x3e0ef9b1	0.13962437
77	0x3dc7cb63	0.0975559
78	0xbdd59467	-0.10428696
79	0xbd5bbe73	-0.053648423
80	0x3d2db6e7	0.042410757
81	0x3d35e978	0.044412106
82	0xbe1aa5bb	-0.15102284
83	0xbe7e5549	-0.24837221
84	0xbdb38797	-0.08766096
85	0xbddc24b1	-0.10749186
86	0xbe632ba8	-0.22184622
87	0xbdf59b32	-0.11992492
88	0xbd6ff0a2	-0.058579095
89	0xbe2b7a91	-0.16745974
90	0xbdba8b4b	-0.09108599
91	0xbdcc89ce	-0.09987222
92	0x3d962942	0.07332088
93	0xbd91bf3c	-0.07116553
94	0xbe370971	-0.17874695
95	0xbde278ad	-0.11058173
96	0xbd05a4dc	-0.032627925
97	0x3e3dc8fe	0.18533704
98	0xbc6b5b29	-0.014364996
99	0x3c9492b4	0.01813636
100	0x3e5e54eb	0.21712081
101	0xbd6a9fcc	-0.0572813
102	0x3cb453c2	0.022012595
103	0xbcc397df	-0.023876129
104	0xbd340e23	-0.043958794
105	0xbd66bf4a	-0.05633477
106	0x3e2a6ab7	0.16642271
107	0xbde88952	-0.11354317
108	0xbe3a05cc	-0.18166274
109	0xbd9721e0	-0.07379508
110	0x3d815283	0.06314566
111	0x3d80a4f8	0.06281465
112	0x3e651314	0.22370559
113	0xbd5f0dd2	-0.05445654
114	0xbda06fcb	-0.07833823
115	0x3da1f7d6	0.07908599
116	0xbe070cbb	-0.1318845
117	0xbc035a41	-0.008017124
118	0x3dbb000b	0.091308676
119	0xbc066493	-0.00820269
120	0xbdcc71b8	-0.09982628
121	0x3d5d3c2b	0.05401246
122	0x3b4a5154	0.003087123
123	0x3cf34ac0	0.02969873
124	0xbe7e004f	-0.24804805
125	0x3e7afc95	0.24510415
126	0x3e859049	0.26086643
127	0xbe85ec14	-0.26156676
128	0x3d9058f7	0.07048219
129	0x3d83947a	0.06424804
130	0x3d08caec	0.033396646
131	0xbd7f9e57	-0.062406864
132	0xbcb8a8b3	-0.02254138
133	0xbd141535	-0.036153037
134	0x3cb01de1	0.021498622
135	0xbca043b5	-0.019563535
136	0x3d940d84	0.072291404
137	0x3d3d3665	0.046194453
138	0x3d9c7201	0.07638932
139	0x3dad95ca	0.084758356
140	0x3dab32c2	0.08359291
141	0x3ca596a2	0.020213429
142	0x3d236175	0.039887864
143	0x3db0e8a1	0.086381204
144	0xbd081c45	-0.033230085
145	0x3d1729cb	0.03690509
146	0x3d46ae7f	0.048506256
147	0x3d3865b1	0.045018855
148	0xbd8f7f5b	-0.07006713
149	0xbbb49f6d	-0.005512169
150	0xbd057a86	-0.03258755
151	0x3db44e2e	0.08803974
152	0xbc25ac64	-0.010111902
153	0x3c96c0f3	0.018402552
154	0x3db321b5	0.087466635
155	0x3d50962b	0.05092446
156	0x3d1946aa	0.037420906
157	0x3cc6ce1b	0.0242682
158	0x3c9b0947	0.018925322
159	0x3d26a52b	0.04068486
160	0x3d59c774	0.05316873
161	0xbd3c7b1e	-0.04601585
162	0xbc980a58	-0.01855962
163	0x3d887798	0.06663436
164	0xbd485a3d	-0.048914183
165	0x3d9a84bb	0.075448476
166	0x3c80b121	0.015709462
167	0x3bc80114	0.006103644
168	0x3d57d3a4	0.05269207
169	0x3d0aef60	0.033919692
170	0x3c40d923	0.011770519
171	0xbc81fadf	-0.015866695
172	0x3d0af7fa	0.033927895
173	0xbcbc1945	-0.022961268
174	0x3dcbcd8f	0.099513166
175	0x3c3dfb73	0.011595595
176	0x3d48ffb1	0.04907197
177	0x3dab82ab	0.08374532
178	0x3ca137da	0.019679952
179	0x3da81fdc	0.08209202
180	0x3cd2d292	0.025735173
181	0x3d8cc78b	0.06873997
182	0x3d89a0fc	0.067201585
183	0x3dae42c0	0.08508825
184	0x3d02052f	0.031743225
185	0x3d6a073b	0.0571358
186	0x3c944a61	0.018101873
187	0xbd2b0d3d	-0.041760672
188	0x3d4e2abe	0.05033373
189	0x3b91ccf3	0.0044494807
190	0x3dbb65ec	0.091502994
191	0x3d99e7af	0.07514893
192	0xbce97ab2	-0.028500888
193	0x3dadbd96	0.08483426
194	0xbd81e1c7	-0.06341892
195	0xbd1dcf1f	-0.038527604
196	0x3b410743	0.0029453791
197	0x3d31ed60	0.04343927
198	0x3d7527bf	0.059852358
199	0x3c2b3da4	0.010451708
200	0x3c924d8a	0.01785924
201	0xbd9d93ee	-0.07694231
202	0xbc341966	-0.010992384
203	0xbd7c6c1e	-0.061626546
204	0xbcc1806d	-0.023620808
205	0x3cbbd619	0.022929238
206	0x3d8135ea	0.063091114
207	0x3d9c8aa3	0.0764363
208	0xbcbe308f	-0.023216514
209	0x3b8c8151	0.0042878767
210	0x3d804e44	0.06264928
211	0x3dcbd341	0.09952403
212	0x3d12c19f	0.035829183
213	0x3d82f7a4	0.0639489
214	0x3d144368	0.036197096
215	0xbc600043	-0.013671937
216	0x3d8141e1	0.063113935
217	0x3d5ba644	0.05362536
218	0x3c8b7d4f	0.017027525
219	0xbc3cb3e4	-0.011517499
220	0xbd50c73d	-0.05097126
221	0xbd3c6bf5	-0.046001393
222	0x3ce28d19	0.027655171
223	0x3cec9711	0.028880628
224	0x3d84c6d8	0.06483239
225	0x3bafef7a	0.005369124
226	0xbd0d6d74	-0.03452821
227	0xbd96008c	-0.07324323
228	0x3d8155bb	0.0631518
229	0xbd345b0b	-0.044032138
230	0x3d3d94fc	0.04628466
231	0x3c310b94	0.010805983
232	0xbd914f63	-0.0709522
233	0x3a3ada32	0.00071278505
234	0x3d826a32	0.063679114
235	0x3d596889	0.053078208
236	0x3db34044	0.08752492
237	0x3d6871de	0.056749217
238	0xbd67b8da	-0.056572773
239	0x3d686f6f	0.056746896
240	0x3c91bc38	0.017789945
241	0x3d4465e8	0.047948748
242	0xbc5e974a	-0.013585875
243	0xbc8fc74a	-0.017551083
244	0x3ce2681b	0.027637532
245	0xbb9f5c9c	-0.004863335
246	0x3c55a41a	0.013039613
247	0xbd61f3f6	-0.0551643
248	0x3d86730e	0.06564914
249	0x3d467fad	0.048461605
250	0xbd49b58c	-0.049245402
251	0xbca164c3	-0.019701367
252	0x3ccdf288	0.025140062
253	0x3dc46e92	0.09591402
254	0xbd21f5e1	-0.03954113
255	0x3dbada9d	0.091237284

mlp.4.bias f4 [4]
0	0xbdae3017	-0.08505266
1	0x3cc3ef9f	0.023917971
2	0x3c4179c6	0.011808818
3	0xbab2fd51	-0.0013655816
