models/nerf_model_no_depth.pth (torch, 103744 bytes, 6 tensors)

mlp.0.weight f4 [128, 63]
-0.07441732 0.09597964 0.034237023 -0.017670205 -0.070383154 0.102665626 -0.16265008 0.041468304
-0.07688144 -0.049071137 0.05728586 0.035820007 0.04680621 0.04558255 0.054435875 0.07426098
0.005076585 -0.047566786 -0.16501215 -0.13275072 -0.029307637 -0.042057224 -0.028765308 0.027032424
0.08408082 -0.0008304574 -0.11176024 -0.0057724607 0.0022968652 0.0067686043 -0.03685065 0.019249447
-0.05541193 -0.010061164 0.040230002 0.0009766698 -0.028618349 -0.0045127226 -0.066575915 0.033196934
0.03662794 0.013927906 0.034680177 0.008153506 0.030582856 -0.06970261 -0.0063516763 0.018749164
-0.03965842 0.010125178 0.051901598 0.028472854 0.034529664 -0.012421823 0.02146612 0.0072566117
-0.03073743 -0.00036233955 -0.03725994 0.013019271 0.03509459 0.01536753 -0.045193557 0.00276312
0.01880155 0.12876242 -0.03487708 -0.050193366 0.11975678 -0.12326257 -0.013821893 0.066037685
0.08429453 0.014211755 -0.022110645 -0.11055753 -0.11780804 0.016114173 0.100510694 0.055477794
-0.07424576 -0.102715336 -0.081286214 0.10307029 -0.011783998 -0.079253264 0.034652658 0.05269115
0.07172912 0.12098027 -0.13399726 0.08409269 0.1121018 0.06492247 -0.03716472 0.0721586
-0.06428347 -0.015838737 0.07939618 -0.020013198 0.024739727 0.010101144 0.038530882 -0.09056518
-0.09583215 -0.0078099994 0.095502414 -0.10011214 0.076561175 -0.05624421 0.024612369 -0.10457472
0.08816825 0.11199172 -0.10559977 -0.11006253 0.06974108 -0.038428567 -0.06292223 0.0844511
0.02933366 0.041089557 0.039617278 0.10777564 -0.08946028 0.07320617 -0.0011764112 -0.057523604
-0.060586255 0.13666075 0.04380492 0.15596965 -0.03250423 -0.17499165 0.026534397 0.1296103
0.060651407 -0.033460543 -0.17450945 0.050594185 0.026652575 -0.051393688 -0.11011325 0.068504706
0.055946384 -0.15491457 -0.058174632 0.019142604 -0.016846899 0.059974 0.023863273 0.03171276
0.0047862493 0.04198565 -0.012589139 0.1288825 0.08102114 -0.103975356 -0.057905633 -0.05605996
-0.012179873 0.04743884 0.03236178 -0.0031038644 -0.043496985 0.1075894 0.045754835 -0.05360626
0.016578339 0.002907996 -0.066453636 -0.0037490956 -0.09892869 0.032256097 -0.093904905 -0.08027321
-0.099711984 0.021955667 -0.0056280997 0.046102725 0.07208798 0.09047425 0.061142843 0.08356484
0.018492155 -0.004204649 -0.07476718 -0.017323053 0.0019486103 -0.0034225117 -0.079173654 -0.12289669
0.055346683 0.042653833 -0.026792493 0.11902057 0.02294659 0.088587105 0.06668124 -0.039389186
0.08897572 -0.018609937 0.02726077 0.10109101 0.1030272 0.089843325 -0.12447165 0.08955971
-0.055046614 0.20014736 -0.021764912 -0.05896102 0.10387161 0.07842981 -0.034738556 -0.014704164
0.095283456 0.11361637 -0.010150949 0.12188598 0.00882762 0.062012352 -0.04022105 0.12585464
-0.10980308 -0.14510511 0.14364599 0.038919326 -0.058158837 -0.15422001 0.2115386 0.0075987643
-0.022135962 0.02770963 -0.17720196 -0.09663966 0.23989227 -0.1018208 -0.1484104 0.06945889
-0.04615782 -0.14909756 -0.09036678 -0.13385367 -0.015765702 -0.17901252 0.02097932 -0.036962755
-0.047048952 0.10676726 -0.05848456 0.13028938 0.1251154 0.08260444 0.101875514 0.020565422
00000000: 1c68 98bd f990 c43d 1f3c 0c3d 1bc1 90bc
00000010: 0b25 90bd 5b42 d23d be8d 26be abda 293d
00000020: 0474 9dbd d1fe 48bd 94a4 6a3d 00b8 123d
00000030: deb7 3f3d c5b4 3a3d 27f8 5e3d 2416 983d
00000040: 7b59 a63b 64d5 42bd f2f8 28be ceef 07be
00000050: 9216 f0bc 3244 2cbd 39a5 ebbc 1a73 dd3c
00000060: 9132 ac3d 0db3 59ba 8de2 e4bd e926 bdbb
00000070: 0187 163b 2bcb dd3b b5f0 16bd 04b1 9d3c
00000080: 9ff7 62bd 95d7 24bc 37c8 243d 9a03 803a
00000090: 0771 eabc 76df 93bb f458 88bd 82f9 073d
000000a0: 2e07 163d df31 643c cd0c 0e3d 4896 053c
000000b0: e688 fa3c 3ec0 8ebd b921 d0bb d997 993c
000000c0: de70 22bd 13e4 253c c596 543d e73f e93c
000000d0: fa6e 0d3d e784 4bbc b7d9 af3c dfc8 ed3b
000000e0: 10cd fbbc 64f8 bdb9 e19d 18bd c84e 553c
000000f0: 58bf 0f3d 18c8 7b3c e11c 39bd 7615 353b
00000100: b505 9a3c 4cda 033e 45db 0ebd 8f97 4dbd
00000110: 0b43 f53d 1671 fcbd 3975 62bc c43e 873d
00000120: 9ca2 ac3d 6cd8 683c 6221 b5bc fc6b e2bd
00000130: 5745 f1bd df01 843c 8dd8 cd3d af3c 633d
00000140: 290e 98bd 6b5c d2bd 6379 a6bd 8416 d33d
00000150: ac11 41bc 894f a2bd f2ef 0d3d add2 573d
00000160: b8e6 923d 81c4 f73d 9436 09be ca38 ac3d
00000170: a195 e53d 12f6 843d 093a 18bd e3c7 933d
00000180: 0da7 83bd 3dc0 81bc 779a a23d b8f2 a3bc
00000190: f8aa ca3c 457f 253c 8fd2 1d3d 3d7a b9bd
000001a0: a543 c4bd 06eb ffbb c596 c33d 9807 cdbd
000001b0: 1bcc 9c3d 5460 66bd e19f c93c 452b d6bd
000001c0: 8e91 b43d ea5b e53d b144 d8bd 7768 e1bd
000001d0: 69d4 8e3d 4667 1dbd 5fdd 80bd b3f4 ac3d
000001e0: 254d f03c 864d 283d ba45 223d 7ab9 dc3d
000001f0: f436 b7bd 1eed 953d cf31 9aba df9d 6bbd
00000200: 4b29 78bd ccf0 0b3e ca6c 333d 82b6 1f3e
00000210: 2823 05bd 0331 33be aa5e d93c 90b8 043e
00000220: 9c6d 783d ec0d 09bd 9bb2 32be d93b 4f3d
00000230: 8056 da3c 3082 52bd 0e83 e1bd 324c 8c3d
00000240: 0928 653d eda1 1ebe 8648 6ebd f3d0 9c3c
00000250: 8202 8abc 4ca7 753d e97c c33c 3de5 013d
00000260: f8d5 9c3b 25f9 2b3d ad42 4ebc c6f9 033e
00000270: 69ee a53d 08f1 d4bd 752e 6dbd 219f 65bd
00000280: 178e 47bc 3b4f 423d c98d 043d 346a 4bbb
00000290: e529 32bd d557 dc3d 6c69 3b3d 3d92 5bbd
000002a0: 4ccf 873c 1494 3e3b d818 88bd 63b3 75bb
000002b0: 209b cabd f81e 043d 3751 c0bd 4866 a4bd
000002c0: cc35 ccbd 5fdc b33c ec6b b8bb 36d6 3c3d
000002d0: dda2 933d 904a b93d eb70 7a3d 0b24 ab3d
000002e0: dc7c 973c 27c7 89bb 891f 99bd 13e9 8dbc
000002f0: 8368 ff3a 384c 60bb cc25 a2bd 43b1 fbbd
00000300: 34b3 623d c9b5 2e3d ee7b dbbc 0ec1 f33d
00000310: 7dfa bb3c 286d b53d 2d90 883d 8e56 21bd
00000320: e738 b63d de73 98bc fa51 df3c ce08 cf3d
00000330: edff d23d c7ff b73d feea febd 156b b73d
00000340: 8f78 61bd 6ef3 4c3e 544c b2bc 1c81 71bd
00000350: a3ba d43d cf9f a03d 044a 0ebd bce9 70bc
00000360: f923 c33d b3af e83d 2a50 26bc 5b9f f93d
00000370: b9a1 103c aa00 7e3d d4be 24bd 0ae0 003e
00000380: 70e0 e0bd 6f96 14be ef17 133e df69 1f3d
00000390: f637 6ebd daeb 1dbe 939d 583e 0eff f83b
000003a0: 7a56 b5bc 4eff e23c 6e74 35be 04eb c5bd
000003b0: 52a6 753e 6c87 d0bd e5f8 17be 7640 8e3d
000003c0: fb0f 3dbd 08ad 18be 3812 b9bd f010 09be
000003d0: 1327 81bc 0f4f 37be d3dc ab3c 4266 17bd
000003e0: 67b6 40bd cba8 da3d 828d 6fbd 946a 053e
000003f0: 401e 003e 842c a93d 1ca4 d03d d178 a83c

mlp.0.bias f4 [128]
-0.07876916 0.08946758 0.05962634 0.023719616 -0.053099003 -0.077618934 -0.005391498 0.0046522245
-0.13514604 -0.14306886 -0.073295444 -0.029565567 0.013849739 0.0022447004 -0.08925459 -0.031204274
0.030875375 -0.004687268 0.05550858 0.0077068773 0.016889205 -0.043914214 0.055250082 0.10081663
0.08834982 0.04273707 -0.16016898 -0.05633571 -0.025057247 0.097904794 -0.082538486 0.05719722
-0.08105257 0.0023233201 0.07934978 0.092442185 0.07812844 -0.108733624 0.021153763 0.017354146
0.08030493 -0.07736682 0.017219963 -0.035654005 -0.029523904 -0.050743632 -0.10879776 -0.062905006
0.024571111 -0.10589316 -0.06384937 0.019784302 0.056316897 -0.056337733 -0.06587913 0.12333253
0.09668658 -0.05579975 -0.052261867 -0.0073217293 -0.12180249 -0.0732543 -0.10804224 -0.021984804
0.07653394 0.09842152 0.029689485 -0.034032658 -0.15676759 -0.13327833 -0.050842088 -0.082506895
-0.014480202 0.07254849 0.0825726 -0.11968153 -0.049084276 0.10191166 -0.053582326 0.074511304
0.07694269 -0.053906415 -0.019296441 0.09073728 -0.095138416 0.040080294 0.083840065 -0.009400278
0.09198179 -0.0862364 -0.16028665 -0.08690641 0.0077191554 0.10361953 0.08222725 -0.1307047
-0.0017864258 -0.12941718 0.09972203 -0.0030703843 -0.025472406 -0.035841618 -0.094280675 -0.08771394
0.03268628 -0.10633125 -0.10372229 0.13163239 -0.11679524 0.004791686 -0.018424392 -0.06733224
-0.057965726 0.092652686 -0.08244648 0.01418367 -0.036189713 -0.122694805 -0.015444103 0.062700756
-0.04162972 -0.15814286 -0.1282904 -0.08830577 -0.016220748 0.088244215 -0.13306522 -0.08162525
00000000: ba51 a1bd c73a b73d c03a 743d a44f c23c
00000010: 577e 59bd adf6 9ebd 2aab b0bb b071 983b
00000020: b963 0abe a580 12be ec1b 96bd 7d33 f2bc
00000030: 04ea 623c d31b 133b 1ccb b6bd 1ba0 ffbc
00000040: 5bee fc3c a797 99bb f75c 633d f989 fc3b
00000050: 3b5b 8a3c 64df 33bd e94d 623d f378 ce3d
00000060: c0f0 b43d 110d 2f3d 5603 24be 46c0 66bd
00000070: db44 cdbc 4f82 c83d f009 a9bd a247 6a3d
00000080: e4fe a5bd d842 183b 2382 a23d 5452 bd3d
00000090: ce01 a03d bcaf debd a84a ad3c 482a 8e3c
000000a0: e976 a43d 7f72 9ebd e110 8d3c ef09 12bd
000000b0: 1ddc f1bc 8ed8 4fbd 5cd1 debd 57d4 80bd
000000c0: 5b49 c93c 83de d8bd 75c3 82bd b012 a23c
000000d0: 8cac 663d 65c2 66bd a3eb 86bd c495 fc3d
000000e0: 9d03 c63d 478e 64bd 8a10 56bd 1eeb efbb
000000f0: 9573 f9bd 5a06 96bd 4045 ddbd 7a19 b4bc
00000100: d4bd 9c3d 3991 c93d 5d37 f33c d465 0bbd
00000110: af87 20be 1d7a 08be cb3f 50bd 60f9 a8bd
00000120: 5f3e 6dbc 4d94 943d d31b a93d 971b f5bd
00000130: 980c 49bd 0fb7 d03d 2479 5bbd 6299 983d
00000140: 2194 9d3d f9cc 5cbd 9213 9ebc 78d4 b93d
00000150: eed7 c2bd 3c2b 243d 57b4 ab3d a003 1abc
00000160: f360 bc3d b69c b0bd 2f22 24be fdfb b1bd
00000170: f8f0 fc3b 7a36 d43d c366 a83d 74d7 05be
00000180: 8126 eaba f085 04be 103b cc3d 8038 49bb
00000190: 82ab d0bc a9ce 12bd 3a16 c1bd 5ea3 b3bd
000001a0: 0ce2 053d 33c4 d9bd 5a6c d4bd a4ca 063e
000001b0: 5832 efbd 9303 9d3b c0ee 96bc 7ce5 89bd
000001c0: 786d 6dbd b1c0 bd3d b3d9 a8bd a062 683c
000001d0: aa3b 14bd 6a47 fbbd 4309 7dbc 4169 803d
000001e0: ed83 2abd 34f0 21be 8f5e 03be a8d9 b4bd
000001f0: 60e1 84bc 62b9 b43d 4042 08be 242b a7bd

mlp.2.weight f4 [128, 128]
-0.0435291 -0.085936345 -9.353542e-05 -0.022868494 0.028546164 -0.0024992274 -0.007905353 0.070237815
-0.066431016 -0.08466701 -0.050807 0.060626257 -0.056303214 0.098797254 -0.03308448 -0.039936967
0.07060587 0.049159613 0.04978923 0.014735838 0.08028849 0.0853548 -0.07556205 0.06532438
0.017867187 -0.043721903 -0.0499135 0.04606278 -0.049991794 0.0043117935 -0.052171495 0.032027368
0.030950041 -0.037019167 -0.039390042 0.06801977 0.045287378 -0.07220475 0.031894967 0.05042336
-0.04004829 -0.06611557 -0.03482614 0.09545281 -0.09668252 0.055631574 0.05596377 -0.017843075
0.06792757 -0.020137722 -0.020614086 0.07785601 -0.068396136 -0.034577474 -0.07044179 -0.07302427
-0.04469932 0.016706588 0.11022461 0.07190663 0.029813828 -0.06315282 -0.07825751 -0.0058075925
0.041257676 0.07243653 -0.0689889 0.043349218 -0.047995783 -0.028882293 -0.07820235 0.06654931
-0.040673412 0.033681795 0.044452164 0.07907476 0.015615192 -0.053013224 0.0037555352 -0.090054534
0.06468366 0.01908555 0.040943112 0.056548595 0.06924417 -0.006450346 -0.0434919 0.021498578
0.09409035 0.06609579 -0.038162753 -0.033592857 0.11653598 0.09944094 -0.08663382 0.006909301
-0.012064017 0.07711696 0.06654441 -0.016466137 0.005825306 0.085460044 0.0949276 0.021167392
-0.05731996 -0.07316643 0.023316205 0.12764089 -0.049475294 0.073677845 0.118694134 0.058596708
-0.049646284 0.025990283 -0.05735753 0.021052293 0.026243223 -0.02406444 -0.01748325 0.07443551
-0.03747603 -0.05236502 0.0462788 -0.0041134795 0.08224154 -0.056177825 0.100037515 -0.069754526
-0.034075238 -0.01333046 -0.07943613 0.0143427225 -0.097820446 -0.007148275 0.02821285 -0.005916959
0.03544168 0.036855496 0.03105215 0.020833015 -0.038226318 -0.00985873 -0.057011962 0.046555936
-0.06416027 0.021627648 0.06779645 0.05148536 -0.023320323 -0.081975706 0.038621992 -0.046499625
0.021926343 -0.062439147 0.064377 -0.052066617 -0.02318684 -0.07117833 -0.02227217 0.058972463
0.043590564 0.045720905 0.022388376 0.0040303194 0.028914798 -0.08551881 -0.011834465 0.038001925
-0.09188828 0.031110138 -0.039305713 -0.05905025 -0.05495916 -0.013527062 -0.052813724 -0.09918096
0.031028882 0.002815071 0.016935911 0.063330136 -0.104672134 -0.04708802 -0.07255267 -0.07152881
0.03268775 -0.09678323 0.017920244 0.024308743 0.042798348 -0.07181194 -0.100750156 -0.057465494
0.040204 0.06199841 0.019837048 -0.043677267 -0.07632415 -0.022787597 -0.033730607 -0.067900814
0.06078543 0.04263511 -0.0800707 -0.03896413 0.046334725 -0.063480325 -0.025986461 0.06168307
0.023794094 -0.0035269095 -0.029499466 -0.08470195 -0.011529356 0.023854682 -0.10079242 -0.09274413
-0.025185449 0.035074707 0.048057735 -0.04420799 -0.012605199 0.010425734 -0.060773134 -0.037545696
0.017523233 -0.032802965 0.07599007 -0.009030188 0.059728976 -0.05488676 -0.10207582 -0.08230417
-0.0844329 0.049434572 0.04692804 -0.012272662 -0.018959625 0.07730174 -0.09283919 0.059058674
-0.06277159 0.042262267 0.05236013 0.0041743163 0.06806898 0.06832823 0.017102439 0.02425848
-0.044548307 0.043403327 0.034740344 -0.058762554 0.070026256 -0.038005702 -0.08611839 0.053103313
00000000: 924b 32bd 65ff afbd 7228 c4b8 b556 bbbc
00000010: a5d9 e93c 14ca 23bb 7485 01bc d8d8 8f3d
00000020: fc0c 88bd e665 adbd 001b 50bd 3d53 783d
00000030: 339e 66bd 3756 ca3d 9783 07bd f294 23bd
00000040: cf99 903d 975b 493d cbef 4b3d 966e 713c
00000050: 4b6e a43d 7fce ae3d 47c0 9abd cac8 853d
00000060: 355e 923c bd15 33bd 1972 4cbd 53ac 3c3d
00000070: 32c4 4cbd f249 8d3b c7b1 55bd 212f 033d
00000080: f18a fd3c 69a1 17bd 7457 21bd f34d 8b3d
00000090: 427f 393d 15e0 93bd 4ca4 023d ba88 4e3d
000000a0: ad09 24bd 9a67 87bd dba5 0ebd c37c c33d
000000b0: 7c01 c6bd efdd 633d 443a 653d a42b 92bc
000000c0: 9c1d 8b3d ddf7 a4bc dfde a8bc f972 9f3d
000000d0: 4613 8cbd 1ca1 0dbd c943 90bd c08d 95bd
000000e0: a216 37bd 41dc 883c 71bd e13d c943 933d
000000f0: 213c f43c 4456 81bd 7945 a0bd 9e4d bebb
00000100: cffd 283d 9a59 943d 0d4a 8dbd f38e 313d
00000110: 3a97 44bd 8f9a ecbc 8e28 a0bd 014b 883d
00000120: 2a99 26bd ecf5 093d 7913 363d f3f1 a13d
00000130: ddd6 7f3c 6524 59bd 6d1f 763b 836e b8bd
00000140: de78 843d 4d59 9c3c f7b3 273d 809f 673d
00000150: e3cf 8d3d 6d5d d3bb 9024 32bd c91d b03c
00000160: 71b2 c03d 3b5d 873d 8c50 1cbd aa98 09bd
00000170: 6aaa ee3d b1a7 cb3d 126d b1bd 6b67 e23b
00000180: 28a8 45bc 7fef 9d3d 7048 883d fee3 86bc
00000190: 35e2 be3b ad05 af3d 6769 c23d 3d67 ad3c
000001a0: 56c8 6abd 48d8 95bd a001 bf3c 4bb4 023e
000001b0: 9ba6 4abd 69e4 963d e915 f33d 1a03 703d
000001c0: e759 4bbd 93e9 d43c bbef 6abd dc75 ac3c
000001d0: 07fc d63c ca22 c5bc 0839 8fbc a571 983d
000001e0: 7780 19bd b47c 56bd d78e 3d3d 5eca 86bb
000001f0: 416e a83d b81a 66bd 78e0 cc3d 76db 8ebd
00000200: 7a92 0bbd 0068 5abc 69af a2bd bdfd 6a3c
00000210: 1656 c8bd 143c eabb a31e e73c 0de3 c1bb
00000220: 4c2b 113d caf5 163d 1461 fe3c 00aa aa3c
00000230: 3393 1cbd 8386 21bc 6085 69bd 70b1 3e3d
00000240: 7666 83bd 772c b13c ddd8 8a3d 50e2 523d
00000250: 430a bfbc e1e2 a7bd 1832 1e3d 6476 3ebd
00000260: e09e b33c 31c0 7fbd 17d8 833d ce43 55bd
00000270: 54f2 bdbc f2c5 91bd 2074 b6bc 1c8d 713d
00000280: 058c 323d d845 3b3d d467 b73c c510 843b
00000290: bade ec3c 7c24 afbd 58e5 41bc e8a7 1b3d
000002a0: ec2f bcbd b0da fe3c 07ff 20bd adde 71bd
000002b0: db1c 61bd 9ca0 5dbc 3453 58bd 631f cbbd
000002c0: 4830 fe3c 0e7d 383b 2ebd 8a3c 3bb3 813d
000002d0: 585e d6bd 5edf 40bd 7f96 94bd b27d 92bd
000002e0: 97e3 053d 4936 c6bd 7acd 923c 2123 c73c
000002f0: 524d 2f3d 2312 93bd 1956 cebd f060 6bbd
00000300: f3ac 243d 0bf2 7d3d 4e81 a23c efe6 32bd
00000310: d64f 9cbd 0ead babc 1b29 0abd 950f 8bbd
00000320: 25fa 783d 27a2 2e3d 1bfc a3bd da98 1fbd
00000330: 7bc9 3d3d f901 82bd 8fe1 d4bc 63a7 7c3d
00000340: d5eb c23c b923 67bb dda8 f1bc 3778 adbd
00000350: a0e5 3cbc e56a c33c 426c cebd a2f0 bdbd
00000360: b751 cebc 7faa 0f3d 30d8 443d 7013 35bd
00000370: 0986 4ebc b3d0 2a3c 40ed 78bd 84c9 19bd
00000380: e28c 8f3c 675c 06bd afa0 9b3d 5bf3 13bc
00000390: 5fa6 743d f0d0 60bd 210d d1bd 178f a8bd
000003a0: 28eb acbd e87b 4a3d 9e37 403d 4613 49bc
000003b0: 3751 9bbc 6050 9e3d 7922 bebd 82e7 713d
000003c0: 648e 80bd 331b 2d3d 9377 563d b4c8 883b
000003d0: c067 8b3d acef 8b3d 6a1a 8c3c b8b9 c63c
000003e0: 4978 36bd b0c7 313d e44b 0e3d 01b1 70bd
000003f0: ed69 8f3d deab 1bbd d75e b0bd dc82 593d

mlp.2.bias f4 [128]
0.06533674 -0.018961444 -0.07664685 -0.035466984 -0.0031301426 -0.06361443 -0.08000476 -0.010686945
0.16793656 -0.06260989 0.06687613 0.07116404 0.041748717 -0.04756721 -0.077806026 0.1336713
-0.019366236 0.040811647 0.07245453 -0.030811751 0.013365153 -0.019608015 -0.036110193 0.0045289616
-0.098413296 0.118497364 -0.06599345 -0.066456504 -0.005358149 -0.023433251 0.006971674 -0.06914091
0.0063406206 -0.03700286 0.01804738 -0.08715051 -0.06518771 0.0528514 -0.077837594 0.051595267
0.07779646 0.014078632 -0.04408754 -0.028417956 -0.030046273 0.034599982 -0.0076116817 -0.00422255
0.06933588 0.0326042 0.06727508 -0.042141106 -0.010044381 0.053252753 -0.075648636 0.007542513
0.03531136 -0.009367136 -0.07104261 0.08182959 0.05904494 -0.09923185 0.07145205 0.044994052
-0.09708796 -0.029074185 0.028702712 0.028553179 -0.043457396 -0.05968449 -0.09891148 -0.03590593
-0.03591736 -0.018085994 -0.078853965 0.01210022 -0.008553242 0.06604656 0.05759588 0.02268429
-0.03120828 -0.094119295 0.03193249 0.076044224 0.13162696 0.02689544 -0.083481684 -0.021915192
-0.010785375 -0.09902612 0.048456967 -0.06212686 -0.041158315 -0.09950968 -0.08670429 -0.010847498
-0.067774475 0.08678381 -0.08243999 0.027153231 -0.0698922 0.1460808 -0.00019698481 0.04774943
-0.07453029 -0.07648886 0.029317081 0.046733808 -0.0107776 -0.014031691 -0.029248647 0.08665534
0.10571133 0.00032523304 -0.06521438 -0.03582675 -0.08810593 0.026621735 -0.023492323 0.062347606
0.06032167 0.042188093 -0.072041854 0.14214855 -0.013443351 0.035235208 -0.04640871 -0.06362644
00000000: 45cf 853d 0855 9bbc 06f9 9cbd d445 11bd
00000010: 1423 4dbb 4848 82bd 89d9 a3bd 4c18 2fbc
00000020: 90f7 2b3e 9d39 80bd 5af6 883d 74be 913d
00000030: b400 2b3d d6d5 42bd c458 9fbd 21e1 083e
00000040: f1a5 9ebc 1d2a 273d 0a63 943d ed68 fcbc
00000050: 84f9 5a3c fda0 a0bc 48e8 13bd af67 943b
00000060: e98c c9bd bfae f23d 9327 87bd 591a 88bd
00000070: 6993 afbb 17f7 bfbc a472 e43b c099 8dbd
00000080: fbc4 cf3b 5090 17bd 19d8 933c f77b b2bd
00000090: 2281 85bd b67a 583d 5169 9fbd 8f55 533d
000000a0: c053 9f3d 10aa 663c 2395 34bd c6cc e8bc
000000b0: 9a23 f6bc b6b8 0d3d 6a6b f9bb 515d 8abb
000000c0: f8ff 8d3d fb8b 053d 84c7 893d 279c 2cbd
000000d0: 3091 24bc 8f1f 5a3d aced 9abd 2f27 f73b
000000e0: a5a2 103d 9e78 19bc ca7e 91bd 4696 a73d
000000f0: 1bd9 713d 113a cbbd 7455 923d af4b 383d
00000100: 0dd6 c6bd fc2c eebc f321 eb3c 5be8 e93c
00000110: 6200 32bd b977 74bd 1a92 cabd 1912 13bd
00000120: 151e 13bd 1429 94bc 307e a1bd 0040 463c
00000130: e622 0cbc 6b43 873d a8e9 6b3d 67d4 b93c
00000140: 82a8 ffbc 9ec1 c0bd a5cb 023d 13bd 9b3d
00000150: 38c9 063e d353 dc3c 72f8 aabd 7d87 b3bc
00000160: 24b5 30bc 35ce cabd d07a 463d bc78 7ebd
00000170: 9f95 28bd bbcb cbbd 0592 b1bd b4b9 31bc
00000180: 58cd 8abd b6bb b13d 4cd6 a8bd 7470 de3c
00000190: a423 8fbd 3596 153e b58d 4eb9 e894 433d
000001a0: 56a3 98bd 31a6 9cbd 602a f03c f36b 3f3d
000001b0: 8894 30bc 2de5 65bc dc9a efbc 5b78 b13d
000001c0: 2f7f d83d 0a84 aa39 1e8f 85bd 12bf 12bd
000001d0: e270 b4bd d315 da3c f972 c0bc 3460 7f3d
000001e0: db13 773d 6ccd 2c3d ae8a 93bd 648f 113e
000001f0: 8041 5cbc cb52 103d 0f17 3ebd 944e 82bd

mlp.4.weight f4 [4, 128]
-0.11756411 0.10616096 -0.0035196936 -0.0075377915 0.071956396 0.04588769 -0.001722509 -0.027355611
-0.1414944 0.0045452933 -0.030675454 0.010026187 -0.120560646 0.100283794 0.071169764 -0.07635726
0.11201041 0.04320373 -0.07784187 -0.08273273 0.009601543 0.06645491 -0.043338176 0.022296427
-0.06659369 -0.053929318 0.028482411 0.022645619 -0.0059301187 0.09438938 -0.11049451 -0.023128744
-0.1215542 -0.05007575 -0.11851899 -0.0082316045 0.011827238 0.044990525 0.061624024 -0.056013994
0.035213046 -0.1042555 0.017305162 -0.073141456 0.0054384153 -0.12773222 0.002664484 -0.11346338
-0.10715505 0.058673497 -0.09487274 0.1087315 0.053629644 -0.058798634 0.0645298 -0.08140317
0.031599186 -0.013343393 -0.051817648 -0.15636523 -0.10396019 0.066079885 -0.052655872 0.03472908
0.061815638 -0.07692042 -0.048875127 -0.011783589 0.052983936 0.022887336 -0.10348754 0.04188814
0.07572921 -0.033453807 0.0952284 -0.084429234 0.044974893 -0.03377861 -0.010331235 -0.16341294
-0.0909331 0.068932705 -0.053652294 -0.06461235 -0.11780369 -0.03445042 0.1087809 -0.031485662
-0.0017242229 0.07351945 -0.18747206 0.019533442 -0.013190862 0.03431329 -0.050844636 -0.07326419
0.07763195 0.017470194 -0.08518037 0.09424698 -0.036969326 -0.12544228 -0.03165838 0.029517345
-0.040879425 -0.06628271 -0.103456214 0.004031356 -0.14029156 0.013898338 -0.016323335 -0.055440724
-0.18332435 -0.022091025 0.069271564 0.09221551 -0.07637705 -0.0342639 0.017195532 -0.050566573
-0.18815893 -0.09001514 0.05781802 -0.0016312955 -0.002537817 0.04607735 -0.015010893 0.003158913
0.09367636 0.009499213 0.017240178 0.0037534162 -0.04466194 -0.0589369 -0.056351203 0.026563251
0.11062614 0.060657587 0.012856975 0.03277612 -0.039428838 -0.02534398 -0.0023542654 0.09271417
0.04301708 0.028230038 0.10898527 0.027073495 0.017907284 -0.034541093 -0.02077646 0.06795194
0.0077643897 0.05506671 -0.043909043 0.00888115 0.0035060046 0.058253665 0.0019031833 -0.054968283
0.06435162 0.02498153 0.07202921 -0.07266901 -0.05748318 0.056717593 -0.00094131904 0.019058207
0.0042195017 -0.023100073 -0.020613892 0.0500663 0.041257985 0.020078983 0.006394689 0.01715963
0.0754394 -0.025449248 0.07192072 0.042343087 -0.05286789 0.019872637 0.053719006 0.027598226
0.012350879 -0.04284119 0.002078764 -0.023102235 0.01594522 -0.06584107 0.0752202 -0.027460404
0.016679876 -0.04664695 -0.015382765 0.05504515 0.03249975 -0.07220143 -0.0626117 0.019152423
-0.011821403 -0.05368867 0.07996462 -0.05173087 -0.04058051 0.00034356755 0.043695863 0.017224336
0.022266822 -0.044496663 0.017787306 0.03421458 0.07169273 -0.005434303 -0.060891517 0.00013814933
-0.0011048602 -0.052195065 0.08512473 0.06789426 -0.049769897 -0.023412876 0.016928438 0.046657756
0.002463268 0.016939444 0.058511905 0.010581825 -0.030875938 0.07332721 0.03974866 0.058548007
0.08022316 -0.057830676 0.030837823 0.020604337 0.029587036 -0.024124045 0.036517773 0.04161968
0.010054801 0.011579384 -0.05552585 -0.0066830562 -0.052600004 0.055580188 0.08130549 0.015776793
-0.037633643 0.0083787665 -0.02840459 0.01569658 -0.024907786 -0.0518583 0.021662707 -0.004299671
00000000: 74c5 f0bd eb6a d93d a9aa 66bb 94ff f6bb
00000010: e05d 933d bbf4 3b3d d0c5 e1ba e018 e0bc
00000020: e8e3 10be aff0 943b 174b fbbc e044 243c
00000030: 80e8 f6bd 9761 cd3d 74c1 913d 3261 9cbd
00000040: b765 e53d 65f6 303d 8f6b 9fbd c76f a9bd
00000050: ca4f 1d3c 8319 883d 5f83 31bd ffa6 b63c
00000060: 4662 88bd fde4 5cbd f253 e93c 4e83 b93c
00000070: 7151 c2bb 384f c13d f24a e2bd 7e78 bdbc
00000080: 69f1 f8bd 3b1c 4dbd 16ba f2bd dadd 06bc
00000090: 08c7 413c fc47 383d 7969 7c3d ee6e 65bd
000000a0: 8e3b 103d e883 d5bd 8ec3 8d3c 30cb 95bd
000000b0: bc34 b23b 3ccc 02be a09e 2e3b 7d5f e8bd
000000c0: 1b74 dbbd 9f53 703d a44c c2bd 9fae de3d
000000d0: c2aa 5b3d d6d6 70bd 3328 843d b5b6 a6bd
000000e0: 266e 013d 3f9e 5abc be3e 54bd 351e 20be
000000f0: 15e9 d4bd e454 873d afad 57bd 1440 0e3d
00000100: 6532 7d3d 7488 9dbd 4931 48bd f40f 41bc
00000110: af05 593d 397e bb3c 46f1 d3bd e692 2b3d
00000120: eb17 9b3d dc06 09bd 1b07 c33d 3ce9 acbd
00000130: 9837 383d 715b 0abd 5744 29bc b955 27be
00000140: 223b babd 972c 8d3d 82c2 5bbd 7b53 84bd
00000150: 1043 f1bd e21b 0dbd 85c8 de3d 1cf7 00bd
00000160: 52ff e1ba 5e91 963d adf8 3fbe 9904 a03c
00000170: 7c1e 58bc 188c 0c3d 7742 50bd 890b 96bd
00000180: 80fd 9e3d a71d 8f3c 0c73 aebd 9004 c13d
00000190: 266d 17bd f173 00be 38ac 01bd 5cce f13c
000001a0: 2f71 27bd 3bbf 87bd dae0 d3bd 7719 843b
000001b0: 97a8 0fbe dbb5 633c 84b8 85bc d015 63bd
000001c0: 61b9 3bbe 3df8 b4bc 40de 8d3d 7cdb bc3d
000001d0: 926b 9cbd 4e58 0cbd a5dd 8c3c e51e 4fbd
000001e0: bcac 40be dc59 b8bd 97d2 6c3d 32d1 d5ba
000001f0: 8151 26bb 9abb 3c3d 40f0 75bc c405 4f3b
00000200: 64d9 bf3d 96a2 1b3c 463b 8d3c e0fb 753b
00000210: 70ef 36bd d267 71bd 85d0 66bd 2d9b d93c
00000220: f58f e23d 1774 783d 10a6 523c 4140 063d
00000230: 2280 21bd 2e9e cfbc 054a 1abb ede0 bd3d
00000240: ad32 303d ae42 e73c ab33 df3d 3cc9 dd3c
00000250: 4cb2 923c f67a 0dbd 6533 aabc 632a 8b3d
00000260: 6c6c fe3b a18d 613d f8d9 33bd 3e82 113c
00000270: ffc4 653b 659b 6e3d 3c74 f93a 6c26 61bd
00000280: c8ca 833d 11a6 cc3c 0d84 933d 7dd3 94bd
00000290: 7c73 6bbd b550 683d dac2 76ba f51f 9c3c
000002a0: bf43 8a3b 5d3c bdbc 77de a8bc 5212 4d3d
000002b0: 22fe 283d ae7c a43c 8a8a d13b 5a92 8c3c
000002c0: f97f 9a3d f17a d0bc 2c4b 933d f26f 2d3d
000002d0: 008c 58bd f1cb a23c 7608 5c3d ad15 e23c
000002e0: 575b 4a3c 3e7a 2fbd df3b 083b e640 bdbc
000002f0: 8d9f 823c afd7 86bd 0c0d 9a3d a4f4 e0bc
00000300: 3ca4 883c df10 3fbd fe07 7cbc 0677 613d
00000310: 751e 053d 58de 93bd 903a 80bd 8be5 9c3c
00000320: 8fae 41bc a7e8 5bbd 7ec4 a33d c0e3 53bd
00000330: c037 26bd db20 b439 6ffa 323d 0d1a 8d3c
00000340: e968 b63c 2242 36bd afb6 913c 9624 0c3d
00000350: a3d3 923d 3d12 b2bb 6269 79bd 2edc 1039
00000360: f5d0 90ba 7eca 55bd e055 ae3d 250c 8b3d
00000370: 85db 4bbd 5ccc bfbc 82ad 8a3c 341c 3f3d
00000380: c86e 213b 97c4 8a3c 2eaa 6f3d 645f 2d3c
00000390: 89ef fcbc 942c 963d 7ecf 223d 09d0 6f3d
000003a0: 0a4c a43d dcdf 6cbd 9a9f fc3c 6dca a83c
000003b0: 8360 f23c ca9f c5bc a993 153d 6679 2a3d
000003c0: e4bc 243c 75b7 3d3c 136f 63bd 8afd dabb
000003d0: 1a73 57bd 0da8 633d 7e83 a63d 553e 813c
000003e0: bc25 1abd 1847 093c beb0 e8bc 1d96 803c
000003f0: 6a0b ccbc 5e69 54bd fd75 b13c 41e4 8cbb

mlp.4.bias f4 [4]
-0.065667406 0.12414304 0.04664777 0.006659452
00000000: a27c 86bd b53e fe3d bb11 3f3d 8837 da3b
