models/nerf_model_with_depth.pth (torch, 103764 bytes, 6 tensors)

mlp.0.weight f4 [128, 63]
00000000: c802 c0bd bc61 fe3c 1a3a 02be 3f56 cfbd
00000010: 7205 343d df62 09bd 833a debd 0648 c03d
00000020: 0f7d 713d 4b11 a2bd fc8c ccbd 0760 84bd
00000030: 5eb0 aebd 4801 8fbd 59a9 fbbd 066f 0abe
00000040: 2118 a03d 043d 3ebd 566a a83d 188c 01be
00000050: e691 6cbd af61 0ebe d4cf e13d cf32 0d3e
00000060: f249 a93d 7a96 dcbd 8e40 29be f52a 1dbe
00000070: 91d5 653d ea9f 093d 27c1 61bd eabe 893c
00000080: 88e4 9c3c 3b32 113e 2e2f 09bb 5358 973a
00000090: 2efa 2f3c 07ec 1b3d c087 c23d e6e9 83bd
000000a0: 1226 1fbc 7b0b 0d3d 261c 80bb c319 703d
000000b0: ba59 0ebe 1e30 0fbe 1422 493d 4a6a eb3d
000000c0: 86b8 0fbe f8c7 f43c 6f24 c73d 44cd 54bd
000000d0: 5588 96bd 4f3d e93d fbc7 503c a2f0 943d
000000e0: 6ea9 7cbd 317e 02be cb84 95bc 37fc 963d
000000f0: 4b2f 81bc 10fe da3d b028 8b3c cccc 963d
00000100: afbe fabd 604c 9cbd cb3c af3d df26 963d
00000110: bd4a 97bc 73f3 25bd fb43 17bd 670f 963d
00000120: 82f2 f83c 98d0 ba3c 5016 1f3d 0de6 dfbd
00000130: 3a63 40bd f60f 893c 39bf a43d f5fe 59bd
00000140: 4904 94bd 03aa 10bd 222d 38bd b9e3 d4bd
00000150: c6f0 5e3d e403 b63d e383 95bd c295 2d3d
00000160: 949a e9bc d170 a0bd b33f 533d 7f1b fbbd
00000170: 3513 22be 126d 1bbc 8fae 32be b969 b9bd
00000180: d302 19bd 9ef7 b63d d19a 823d dd2f 68bd
00000190: c0ad c0bc 5c69 8a3d 8300 f63d 8f9b 31bd
000001a0: 9b6c 113d 179b 933d df68 1fbd 012a 84bd
000001b0: 572c 29bd a2bc a13d 71fc 5e3c f8ad 8c3d
000001c0: 83d9 4bbc 2c10 d93d bb4f 5f3d f72e e6bc
000001d0: a13c abbd b3f9 8b3c 6952 213c 4eb3 a13c
000001e0: eb98 293c 4927 67bc cec4 26bb f945 fb3d
000001f0: e0a2 463d b156 cd3d 5ddf 9d3c afb5 7ebd
00000200: 5402 e23c 96ae 93bd c80c 5fbd 401e 38bd
00000210: 7c89 a3bd c45d c0bd 65c8 f5bd 152f a4bd
00000220: ef83 9fbd 3696 3ebc a37e fdbd e8fc 62bc
00000230: 9848 09be 5357 6bbc dff1 853d 3d0a 5cbb
00000240: 797c 273d 9f73 5ebd 4eff 80be b3e1 503e
00000250: d8a4 183e 86f2 b4bc 3da0 33bd 6d4e f13c
00000260: f515 4b3e d54f 23bd aa9e 053e e645 07be
00000270: b06e 043c b8a6 813d 90f3 913d faaa 2d3d
00000280: cb64 dcbd c02e 1e3d 5471 1f3e 2060 74be
00000290: a089 04be f851 13bd 3539 093d 01d9 cbbd
000002a0: 9bfa 78bd ac20 7e3d 640b b83d 8a3a 9f3a
000002b0: d853 b03d 130d 3b3e 381f b23d 5a66 90bd
000002c0: 028a 063d eaf1 dabc a144 ae3c e9f5 743d
000002d0: 830b 673b d089 4e3c 2bc5 4dbd 71e1 903d
000002e0: c717 813c aee7 23bd d249 82bd aa00 f63d
000002f0: 3072 673d 56ec 163b 3540 17bc ca59 e23d
00000300: 137a 853b a8a7 a23d 4cf4 9ebd 1d0b c2bd
00000310: ff92 003c 7ddc a03d 8d91 73bd 31b5 c43d
00000320: 1a5c a83d 410a dbbd 0cb4 d3bd 3290 aa3d
00000330: 56d6 7bbd 568d b63d fc9d 01bd c61c b0bd
00000340: d041 10be c36b 0e3d 0cea 153c e912 d6bd
00000350: 662d f53d 4acc d1bd 1400 b53d 4bd6 b73d
00000360: f222 48bd 504b 9cbc a5ac 56b8 7eb8 bbba
00000370: 42a1 bdbd 3902 bbbd 3926 88bb 5155 86bd
00000380: 9fa9 023d 037f 6bbc 5a40 a7bc 67e8 053e
00000390: 9001 d13d cc08 7a3d eb0f 8dbd 0e29 bc3d
000003a0: a3da 04be 31e5 7d3d 015a 443d 20f6 c23d
000003b0: 5855 8a3c 5b21 293d 8d1f 00be 57dc 8ebd
000003c0: b171 6ebb b16b b1ba d169 883d 7491 f53d
000003d0: 8fdc c63c 8545 dbbc 1288 033e c91d a7bd
000003e0: cede 143c 43c9 e23c 3795 ee3d 56af cabc
000003f0: 1158 bd3d f44e e13d 2570 e6bd cef4 c13d
-0.093755305 0.031052463 -0.12717476 -0.10123872 0.043950506 -0.033541556 -0.10851004 0.093887374
0.058957156 -0.079134546 -0.09987828 -0.06463628 -0.08529733 -0.06982666 -0.1228816 -0.13518915
0.07817102 -0.046444908 0.08223407 -0.12651098 -0.057756327 -0.13904451 0.11025968 0.13788913
0.08266057 -0.107708886 -0.16528532 -0.15348418 0.056111876 0.03359977 -0.055115845 0.016814668
0.019151941 0.14179318 -0.0020932662 0.0011546708 0.0107408 0.03806689 0.094985485 -0.06441097
-0.0097136665 0.034434777 -0.0039096056 0.05861832 -0.13901415 -0.13983199 0.049104765 0.114948824
-0.14035234 0.029880509 0.09723746 -0.05195357 -0.07350222 0.11388647 0.012742992 0.072724596
-0.06168502 -0.1274345 -0.018251797 0.07372325 -0.015769621 0.1069299 0.016987175 0.07363281
-0.12243401 -0.07631755 0.08556517 0.07331633 -0.018468255 -0.040515374 -0.036930066 0.073271565
0.030389074 0.022804543 0.03883964 -0.109325506 -0.04696963 0.016731244 0.08044285 -0.05322166
-0.0722738 -0.035318386 -0.044964917 -0.10394997 0.05442884 0.08887461 -0.07300546 0.04237915
-0.028516091 -0.07834018 0.05157442 -0.12261104 -0.1582764 -0.009486454 -0.17449401 -0.09053368
-0.03735621 0.08933948 0.06377185 -0.05668627 -0.02352035 0.06758377 0.12011816 -0.043361243
0.035503965 0.072073154 -0.038918372 -0.06453324 -0.04130205 0.07897307 0.013609991 0.068691194
-0.012441996 0.10598788 0.054519396 -0.028098566 -0.083611734 0.01708684 0.009846308 0.01973882
0.0103514 -0.014108487 -0.0025446895 0.122692056 0.048495173 0.10026301 0.019271547 -0.062184986
0.027589 -0.07211034 -0.05445555 -0.044950724 -0.079852074 -0.093928844 -0.12001113 -0.08016793
-0.07788836 -0.011632493 -0.1237767 -0.013854243 -0.13406599 -0.014364081 0.06540274 -0.0033575438
0.04089019 -0.054309484 -0.25194782 0.20398597 0.14906633 -0.0220883 -0.043853987 0.029456342
0.19832595 -0.039871056 0.13048807 -0.13210258 0.008083031 0.06330627 0.07126534 0.042399384
-0.10761412 0.038618803 0.15570575 -0.23864794 -0.12943125 -0.035966843 0.033501823 -0.099534996
-0.06078587 0.062042877 0.089865476 0.0012148183 0.08609742 0.18266706 0.08697361 -0.07050772
0.03284646 -0.026726682 0.02127296 0.05980483 0.0035254664 0.012606099 -0.050236862 0.070742495
0.015758408 -0.04001587 -0.06361736 0.120118454 0.056505382 0.002302905 -0.009231617 0.11052282
0.0040733903 0.07942134 -0.0776144 -0.09474776 0.007847547 0.07854555 -0.05946498 0.09604872
0.08220692 -0.10695315 -0.103370756 0.08328284 -0.061483704 0.089136764 -0.031644806 -0.08599238
-0.14087605 0.03477074 0.009150039 -0.104528256 0.1197155 -0.10244043 0.088379055 0.0897642
-0.04886145 -0.01907888 -5.1182364e-05 -0.0014321951 -0.09259273 -0.09131283 -0.004154947 -0.065592416
0.031900045 -0.014373544 -0.020416427 0.13076936 0.10205376 0.061043546 -0.06887802 0.09187518
-0.12974028 0.061986152 0.047937397 0.09519601 0.016886398 0.041291576 -0.12512036 -0.0697562
-0.0036383683 -0.0013536123 0.06660808 0.119906336 0.024275092 -0.026766548 0.12844875 -0.08159978
0.009086324 0.02768386 0.11649554 -0.02474181 0.09245313 0.11001387 -0.112518586 0.09470521

mlp.0.bias f4 [128]
00000000: 854f bdbd 696b ecbd 9b69 453d 9fc3 61bd
00000010: 6c9d d43c 37c1 4b3c 5cc6 553d 61a6 eebd
00000020: 43a9 15be 9d44 6dbd 9be2 97bd 828e 293d
00000030: d643 d8bd 927e 59bc fed5 13bd f71e d63c
00000040: 918a 32bc 289f e53c dceb 21bd cacd d93d
00000050: 78a0 8b3c ba21 1b3d f963 d33d f3c2 57bc
00000060: 6f7b 06bd c4ff f83b 24ef cbbb 7ab7 003d
00000070: f908 a23d 1b66 423c f721 823d 0d0f efbb
00000080: c78c bebd e11c 8f3d 489f 75bd 5043 0dbe
00000090: 6d04 913d d117 cfbc 922f 8cbc 1777 693d
000000a0: 4a84 80bd d385 283d 341e aabd 7037 693d
000000b0: 42d8 593d 5c70 54bd d7cb 8ebd b966 04be
000000c0: 4ab1 8a3d eb92 ab3d 284f 05be dce7 cfbc
000000d0: fd3a 98bd 42a1 1e3d bdeb a9bc e1ac 8c3d
000000e0: 4761 e83c 1348 373d e1b6 2abc 640d 41bd
000000f0: e994 c0bd 9233 24bc 5363 073d 8005 c3bc
00000100: 40c9 c3bc 4273 34bd 1fbd c93d 52f0 ef3d
00000110: f5f1 083c d4d7 71bd bee2 25bd 280d 9e3d
00000120: ab70 eabc e6c8 1fbd 3a97 2e3d f2f0 56bd
00000130: 3185 a43d 80c3 25be 3700 f1bd 5d01 743d
00000140: f361 bebd b150 ebbc 49a4 fa3c db0e 23be
00000150: ff88 d3bc f325 80bd cfd2 b3bb 5173 e9bd
00000160: 5498 2ebe 2b0e 1bbd 0dfb cc3c 2fd1 01bd
00000170: e566 7dbd 6a00 2a3d 3c1b 873d a247 d2bd
00000180: 3685 833d 0a1f 84bd a9bf 94bb a504 d2bd
00000190: 9c8c 1fbd fc03 45bd a656 c3bd 1ad2 d3bc
000001a0: 23f0 903d e6f4 263d ac90 973c 66f6 533d
000001b0: 3465 043e 7616 ba3d 1082 18be a7c8 14bd
000001c0: 40de 88bc 25b2 a8bc f330 c63d b105 e33a
000001d0: b5d0 963d f3ba a9bd 8ee7 0cbe db82 26bd
000001e0: f6cb 6a3d ed5a c03c f7b5 5c3d 5009 6ebd
000001f0: 1d3f f8bd 2ff6 383d 3164 9e3d b01d b23d
-0.09243683 -0.11543924 0.048196416 -0.0551182 0.02595397 0.012436203 0.052191123 -0.11652828
-0.1461535 -0.057926763 -0.074162684 0.04139567 -0.10559814 -0.013274806 -0.03609275 0.026137812
-0.010897295 0.028029993 -0.039531574 0.10634954 0.01704429 0.03787396 0.10321803 -0.013169038
-0.03283256 0.007598849 -0.006223576 0.031424977 0.07911868 0.011865164 0.063541345 -0.0072954954
-0.09304195 0.0698793 -0.059966356 -0.13795209 0.07080922 -0.025279911 -0.017112527 0.05699834
-0.06275232 0.04114325 -0.08306542 0.056937635 0.053184755 -0.051864967 -0.06972473 -0.1292981
0.067720965 0.08377632 -0.13018477 -0.025379114 -0.07433126 0.038728006 -0.020742292 0.068689115
0.028366698 0.04474647 -0.010419578 -0.04713191 -0.09403402 -0.010022061 0.033053707 -0.023806334
-0.023899674 -0.04405523 0.09850525 0.11715759 0.008358468 -0.05904372 -0.04049944 0.07717353
-0.028618177 -0.03900995 0.04262469 -0.052475877 0.08033217 -0.16187859 -0.11767619 0.059571613
-0.09296026 -0.028725 0.030595915 -0.15923636 -0.02582216 -0.06257238 -0.005487777 -0.11398948
-0.17050296 -0.03785531 0.025022054 -0.031693634 -0.061865706 0.0415043 0.065969914 -0.10267569
0.06421892 -0.06451233 -0.0045394492 -0.10254792 -0.038952455 -0.048099503 -0.09538011 -0.02585702
0.070770524 0.040760897 0.018501602 0.051748656 0.12929231 0.09086315 -0.14893365 -0.03632417
-0.01670754 -0.020592758 0.09677305 0.0017320422 0.073640265 -0.08287611 -0.13760206 -0.040652137
0.05732342 0.023480857 0.053884473 -0.05811435 -0.12121413 0.045156654 0.07733954 0.08697069

mlp.2.weight f4 [128, 128]
00000000: b423 0bbd 957f cfbd 0daf 72bd d908 0d3d
00000010: 8460 a4bd 07a9 1e3d 0467 13bd 29de a53b
00000020: 52f3 f1bc 7bfc bd3c b419 95bd 3137 a1bd
00000030: 37d4 373b d48f cfbd a714 fc3c a70d 8f3d
00000040: 7293 d03c 9ec3 453d 32cf 2ebc be44 853d
00000050: 79c4 79bd ce8a 9bbd 0c12 9abd afb6 0a3d
00000060: d329 9dbd 0c47 263c 87b9 a8bd fc95 22bd
00000070: 9931 633d b114 6bbd 0ca1 91bd a37b 853c
00000080: c7ad 10bb 002b e03c f923 8bbc 8eac 7d3d
00000090: c1e0 3bbd 90d6 a7bd bff5 ad3c 13ff 7cbd
000000a0: a785 1fbc 3061 a9bb 237f 94bd 483c 303a
000000b0: e4a8 8b3b 534c a3bb 9dff 4ebd 2fa6 f4bc
000000c0: 42fd 23bb b30a 87bd eeb7 14bd 2f6f a43c
000000d0: bca9 c7bd a2c1 a9bc a23e a4bd 01d1 273d
000000e0: b141 52bd b61d 283c cbb8 f73c 2b47 ebbc
000000f0: 29f3 3dbd 182b 49bd 8558 ca3c cfb3 d83c
00000100: 73e5 c73c 4730 bdbb d0c9 1c3d b210 be3c
00000110: 3bbc 90bd 9ffb cfbd 00d3 26bd 18c9 64bd
00000120: 8383 bebc a049 5d3d 3c17 5fbc f571 5dbd
00000130: 8a1d cabd be5b 53bd ceb0 60bb d0e7 963b
00000140: 74bc ae3c f57e fc3c 6b4f 62bd ac9f 5b3d
00000150: f0d4 813d 14b7 693c f0f3 22bd bce6 3cbd
00000160: a504 19bd e045 e13c fa8f 183d c083 243d
00000170: e343 18bd deee 873b 491b ad3c e55d 9f3c
00000180: e8fa 35bd e21b 7fbd 3329 bebc c2f0 d03c
00000190: daf3 65bd 3f8f 623d a550 7fbd c8a0 00bc
000001a0: 9b13 323d 6c0a b3bc 5b77 713c 61ef 8c3c
000001b0: 5ec5 763c 7360 04bd e313 cdbc 4eb1 033d
000001c0: 8a21 5abd a4f8 0d3c 9b9d 1dbd 859d 0cbd
000001d0: eaa0 f9bc 85b0 a73c 55eb cdbc babd c6bd
000001e0: 6b55 843d 493f 253c abae 70bd 7ce8 c1bd
000001f0: 5c81 8c3d e57d 6bbd cf82 e33c cd1b 93bd
00000200: 6902 c33d b702 f8bc d2a0 153d 618e 933d
00000210: 5adc 853d e1cd 91bd c2a4 0cbd 7a8e 803d
00000220: 05a7 8fbb fe0c 1bbd 166b 15bc b8e2 523c
00000230: 6d8d e13c 1afa b63c e6b7 46bd 4efb bf3c
00000240: 1f34 313d eadf 193d 3c67 ad3d d45b 443d
00000250: 7cf2 a03d d836 3a3c a3c6 4bbd d4ac 7fbd
00000260: ced0 563d 90d0 8e3b 7db8 9e3d 076c 86bd
00000270: c6f9 98bd 287d 7abd bccd 2b3b 1309 c4bc
00000280: 2514 693d 059c b1bd 6016 4fbc 1c68 8ebd
00000290: 9a87 1fbd 50d5 4abd 366d 5f3b 6d7c 8c3d
000002a0: 04b5 2a3d 844c 6cbc 8478 10bd 15a2 993d
000002b0: 74c4 973d 9248 4e3d 1910 2bbc 939f 143c
000002c0: 20b0 3bbd 2d94 3dbc 1d24 cfbc fa22 b1bd
000002d0: ab7e 493d d9cd 9e3d dd9c 04bd d790 2fbd
000002e0: 6bb8 bdbd 1dab 18bd 6477 0bbd e2a9 8d3d
000002f0: 3d03 b1bd 5380 55bc 201d c2ba 5988 1f3c
00000300: c40e a23d 8c7b 6bbd d65a 2dbc cb7c 56ba
00000310: 274f 7a3d 72d9 013d 3409 183d ffc1 09bd
00000320: a2b4 273c 963d 13bd 0e93 813d 2504 48bd
00000330: 9229 0a3d b61a 6ebd 596f 603d b02a 923d
00000340: 7453 88bd 75ce 15bd d28d 02bd 834c 343d
00000350: 9433 14bc 3f4e a33d 1f9a 303d 557c b03d
00000360: dbbc 0f3d d890 983d 0cc5 9ebd 7cb6 813c
00000370: ae09 e3bc 05b5 9b3d cc3c b23d 6190 0e3d
00000380: 1665 2d3d da33 473d 8273 933d 8751 3a3d
00000390: 6f24 9c3d 0a46 20bd be89 4abd 670d 05bd
000003a0: 208f 7ebd ce5d 7fbd 2a80 533d ea64 21bd
000003b0: 8c7d 13bd 8df1 123d e883 923d d151 5a3d
000003c0: c0f9 acbd 5158 8abb bc34 45bc 334f 823c
000003d0: 7809 89bd 709b 5b3d 8c14 acbd 42c3 74bd
000003e0: 7c72 c23d a272 ad3d 6458 433d f760 b43d
000003f0: bca0 adbc 9180 97bc b88b b43d fb4d bdbb
-0.033969596 -0.10131756 -0.059248973 0.034432266 -0.080262214 0.038735416 -0.035986915 0.005061884
-0.02953497 0.023191681 -0.07280293 -0.07871855 0.0028050074 -0.10134855 0.030771567 0.06985026
0.025460932 0.04828226 -0.010669516 0.06507252 -0.060978387 -0.07594834 -0.075229734 0.033865627
-0.07673993 0.010148775 -0.082385115 -0.039693817 0.055467222 -0.05739278 -0.071107954 0.016294306
-0.0022076236 0.027364254 -0.016984927 0.06193214 -0.04586864 -0.081952214 0.021235345 -0.061766695
-0.009736455 -0.0051690564 -0.07250812 0.000672285 0.0042620767 -0.004983464 -0.05053674 -0.029864399
-0.002502278 -0.065938376 -0.03630822 0.020072548 -0.09749171 -0.020722214 -0.08019759 0.040970806
-0.05133218 0.01026099 0.030239483 -0.028720459 -0.046374474 -0.049113363 0.024700413 0.026452927
0.024401402 -0.0057735774 0.0382784 0.02320132 -0.07067152 -0.10155415 -0.04072857 -0.05585584
-0.023256069 0.054025292 -0.013616379 -0.054063756 -0.098689154 -0.051601164 -0.0034285071 0.004605271
0.021330096 0.030822257 -0.05525152 0.05361907 0.06339443 0.014264841 -0.03978342 -0.046118483
-0.037357945 0.02749914 0.03724668 0.04016471 -0.037174117 0.0041483482 0.021131175 0.019453952
-0.044428736 -0.06228245 -0.023213005 0.025505427 -0.056140758 0.05531239 -0.062332768 -0.007850833
0.04347573 -0.021855555 0.014737929 0.017203989 0.015061704 -0.032318544 -0.025033897 0.032151513
-0.05325464 0.008665238 -0.038480382 -0.03432991 -0.030472238 0.020469913 -0.02513663 -0.09704156
0.06461605 0.010085889 -0.058760326 -0.09468171 0.06860611 -0.05749311 0.027772335 -0.07183037
0.09521944 -0.030274732 0.036530323 0.07204891 0.06536169 -0.071193464 -0.034336813 0.06277175
-0.004383924 -0.037854187 -0.00911977 0.012871437 0.027533257 0.022336055 -0.048515223 0.023435261
0.043262597 0.037567057 0.08466956 0.047939137 0.0785875 0.011365615 -0.04974998 -0.06242068
0.052445225 0.0043583587 0.07750032 -0.06563573 -0.074695155 -0.061154515 0.0026215157 -0.023930108
0.056903977 -0.086723365 -0.012639612 -0.06953451 -0.03894768 -0.049519837 0.0034092194 0.0685967
0.041676536 -0.01442254 -0.035271183 0.07501618 0.07410517 0.050362177 -0.01044085 0.009071249
-0.045822263 -0.011570972 -0.025285775 -0.086492494 0.049193066 0.07754106 -0.03237616 -0.04286274
-0.092636906 -0.03727256 -0.034049407 0.06917168 -0.08643196 -0.013031083 -0.0014809705 0.009737098
0.079129726 -0.05749087 -0.010580739 -0.0008182048 0.06111064 0.031701513 0.03711815 -0.033632275
0.010235937 -0.035947405 0.063268766 -0.048832078 0.03373105 -0.058130942 0.05479369 0.07137048
-0.066565424 -0.036573846 -0.03187353 0.04401828 -0.0090455 0.07973909 0.04311573 0.086174645
0.035092216 0.07449502 -0.077524275 0.015834086 -0.027714577 0.07602886 0.08703002 0.03480566
0.04233273 0.048633434 0.07199766 0.045487907 0.07624137 -0.039129294 -0.049447767 -0.032483485
-0.062148213 -0.06234532 0.0516359 -0.03940288 -0.036008403 0.035874892 0.07154065 0.053300682
-0.084460735 -0.004221954 -0.012036499 0.015906906 -0.06691259 0.053615034 -0.084023565 -0.059756525
0.094944924 0.0846913 0.047691718 0.08807557 -0.021194808 -0.018493922 0.08815712 -0.0057771183

mlp.2.bias f4 [128]
00000000: cb0f d63a d211 85bd 6544 fbba c814 503d
00000010: 3a92 b33d c56e d13d 764c aabd 7d8d 1bbd
00000020: cf06 533d cdca 23bd 3eb2 8c3d 0d08 26bd
00000030: 91ae 2b3d bbd9 9a3d 1d92 e6bb bb45 02bd
00000040: b166 25bd bcd8 20bc 693d 2c3d 06b2 1abd
00000050: d5c8 24bd 8a1c c3bc 3295 5e3d 4ef1 39bd
00000060: 63b1 cbbc c20a 52bd 9f6f bfbd 2ddb 003d
00000070: 0653 afbd 2541 07bd 9042 ca3d 323b 0a3e
00000080: b766 4ebd 2abb 9c3c 6366 31bd 4a91 14bd
00000090: b0ec 13bd 5b7e 813b a6dd f13d 9f56 26bc
000000a0: fd4e 4cbd c756 9bbc 9df9 8b3d ea2f 27bd
000000b0: a734 a6bd c4f8 8cbc 24d2 57bd a507 723c
000000c0: 198b 07bd 5a9e 31bd dc2b 40bd cb2f 993c
000000d0: a903 1e3a 7746 01bd c840 1dbd a99e 853d
000000e0: c055 fd3d b99c e73b c98d 243b 7a18 6ebd
000000f0: b1a3 3eb8 2e98 7c3d a58b 343d 7866 b63c
00000100: 6445 0b3e e124 093d a118 3c3d 23c2 c3bd
00000110: 13f5 87bc 7806 b8bb 3d56 f93a f319 9a3c
00000120: b548 b63d d6eb 88bd e8f6 1b3e 2dc9 0b3d
00000130: 539b 003d 050e e6bb c736 5bbd ab92 8a3c
00000140: d3c1 453d 54ea 703d 6c2b 103d 9f68 25bd
00000150: 1c17 833c bf78 433d 76a9 fabc 0a6b 2b3d
00000160: 55da 9ebd 8b12 fabc 2375 e03c d1a8 8d3d
00000170: eefe 6ebd fc2e 143e b0d0 013c 2c90 67bc
00000180: 6962 193e b041 a23d add3 233c 0362 4c3d
00000190: 97dd dabc a25a c6bd 9c6e 58bd 18d7 9cbd
000001a0: 067e 11bc 8e1d 523b 7f8e 8a3d a848 adbc
000001b0: a85d e4bc f8ad a33d 8d7a bfbd 2c76 81bd
000001c0: 2f6b 193d 920b babd 8e37 76bc 1538 b6bd
000001d0: 9432 a9bc d042 98bc f8a7 df3c 95bb 873d
000001e0: 3d4d 893c 3742 67bd 5b74 5d3d 85c5 c73c
000001f0: 7953 61bc 6f3c 293d 332d 823d 93c8 953c
0.0016331611 -0.064975396 -0.0019170163 0.05080107 0.08768125 0.10226206 -0.08315365 -0.03797673
0.051520165 -0.039988328 0.068699345 -0.04053502 0.041914526 0.0756106 -0.007036461 -0.03180478
-0.040381137 -0.0098172985 0.042050753 -0.037767433 -0.04023059 -0.02381732 0.054341502 -0.04539614
-0.024864858 -0.05127979 -0.09347462 0.031459022 -0.08560757 -0.03302111 0.09875977 0.13499144
-0.050390925 0.019132216 -0.043310534 -0.03627137 -0.036114395 0.0039518303 0.11809854 -0.010152488
-0.049880017 -0.018962277 0.06834719 -0.04081718 -0.081155114 -0.017208464 -0.05269064 0.01477233
-0.03309164 -0.043363906 -0.046916828 0.018699547 0.0006027767 -0.03156134 -0.03839186 0.06524403
0.12369871 0.0070682433 0.0025108925 -0.05812881 -4.545198e-05 0.061668567 0.044078488 0.022265658
0.13600689 0.033482436 0.045921925 -0.09558513 -0.016596353 -0.0056160055 0.0019022893 0.018811202
0.089005865 -0.06685607 0.15230906 0.034127403 0.03139813 -0.007020714 -0.053519037 0.01691564
0.04828055 0.058817223 0.03519766 -0.040382978 0.01600223 0.047722574 -0.030598383 0.041850127
-0.07756487 -0.03052642 0.027399605 0.06916965 -0.05834859 0.14471048 0.00792329 -0.014133494
0.14978947 0.07922685 0.009999198 0.04989816 -0.02671699 -0.096852556 -0.05283986 -0.076582134
-0.008880144 0.0032061073 0.0676546 -0.02115281 -0.02787669 0.07992166 -0.093495466 -0.063213676
0.037455734 -0.09084238 -0.015027894 -0.088974155 -0.020654 -0.018586546 0.027301773 0.06627575
0.016760463 -0.05645963 0.054066043 0.024386177 -0.013752812 0.0413174 0.06356277 0.018284118

mlp.4.weight f4 [4, 128]
00000000: 18f4 823d bebd f43b ae34 67bd f0ed 08bd
00000010: d808 4fbe da6d 49be a4d0 423e b0a2 82bd
00000020: 4627 403e 6631 0bbe ffa4 a3bc bd35 073d
00000030: d0a9 d63a 0c78 ecbd c712 6dbe 9901 313d
00000040: aa9d 1b3b 947b f23b 02a3 4ebb 5812 dfbc
00000050: c3f3 edbd 4a0d 25bd 5792 3bbe 26e5 ef3d
00000060: 7137 36be 7e3c 7bbd b19e ddbb 0aba 843c
00000070: 87d2 20bd 2e9e 803d 7833 60be ef8f 353e
00000080: a242 053b d231 3abe 8e8b 83bd 0a65 b83c
00000090: 452a 92bc 416b 55be 7d81 74be ae45 b73c
000000a0: f419 8d3d b8f2 013d 6162 6b3e d210 863d
000000b0: ba28 0a3d eb58 503e 89fb 4c3d 5b03 8c3e
000000c0: 46b0 633e 7049 e2bc 8f43 343e 4ee7 06be
000000d0: b873 abbd e54c 273e 25b1 963d 7f82 28be
000000e0: 946b 84bd 8885 11be 1faf edbc 3a41 5e3e
000000f0: 9974 353e 287f 7a3d 79e8 a83d 98a1 debb
00000100: a423 42be ed16 2cbe 35c8 303e 3a47 2d3e
00000110: 5c11 8e3d 3421 45bd c956 f5bb e0fa 38bd
00000120: 979d 50be f44f c2bc 56ec f33c e5b7 71bd
00000130: 3cc9 34be f5ab 723d fd48 93bd c366 2cbc
00000140: fe6f a8bc c8fa 12be b41d 8f3e ca2d ecbc
00000150: e349 24be 1546 a23d a6b7 95bd 873a 25bc
00000160: d1c0 97bb d764 a0bd 26de 543e 3af7 6abe
00000170: c3b0 1e3e 6d63 bb3d a88e ab3c 89c5 833e
00000180: 8aa6 fcbd 485d 733e ff82 823d f908 babd
00000190: f390 38be 12c1 313d 956d cebd ed3f 373d
000001a0: a6f3 823e 8dfb b73b 176c 873e a920 57bd
000001b0: 0fe1 cd3d e74f 9abd 33d2 423c 92d8 f4bc
000001c0: defe 9ebd 0607 41bd a1a1 413d b211 ce3c
000001d0: 21a0 77bd 4cad b6bd f61f 8a3e 8c11 10be
000001e0: a2a3 0bbd 0c13 1bbb db06 cdbd 18a3 683d
000001f0: 1f26 8d3d 4ffc 32be cd85 233d c53a 1abd
00000200: ec8c 3d3c 4346 973c 65da 27bc 513f 28bd
00000210: 0ff6 be3d 07cd 183e 7cb5 2e3d 1418 0b3d
00000220: c27f 9f3d eae6 2b3d bb81 813d 27cf 7fbd
00000230: bfb6 29bd 6e3d ad3d f1d5 bc3d 3607 94bd
00000240: 4303 ce3c ca95 4e3d ae1d aa3d 1d2a bc3b
00000250: 006b 003d 2718 44bd 235b 1b3d 8149 763d
00000260: 6cf2 ea3d 432f 2cbc 8574 973c 9632 ab3c
00000270: 54d1 6d3d 52aa 98bd e4dd 1b3e ae61 a83d
00000280: fceb 80bd ebc4 603d 2dc3 9dbc 1156 31bd
00000290: 7749 8dbd da7f b23d 426e 063e 2d3e ab3d
000002a0: 83f1 cdbc 9557 1fbd 8917 353c bcaa a33d
000002b0: e5c9 58bc c88b 2bbd 32d9 1ebc 1795 eb3c
000002c0: 3384 d13c 696f 9a3d e9cf 413d a162 52bb
000002d0: 2280 423d ccb2 853d 1896 76bd 757c 363d
000002e0: 4c47 cd3d f882 af3d b345 8d3c 7b9d 1d3d
000002f0: a390 30bc d648 923d 29b0 75bd 7bcb 6fbb
00000300: 6376 a13d d48d 0c3d 994f 2a3d 942d 853d
00000310: 1591 603c f36d 663d 706c 893c b6f5 45bc
00000320: b393 003e 9da7 733c fdf8 103d 98b6 183d
00000330: 8609 923d bdd2 57bc 4479 713d 7ff4 313c
00000340: 4e22 823d cddf be3d 96b6 dc3b a5b5 0abd
00000350: fcff 0b3c f405 86bd d372 f53c 60cd eabb
00000360: 7cd4 8a3d fa70 bebc ed0e 763d 610c 073d
00000370: cc38 ce3b baeb a23b afbc 8ebc 68ce c5bb
00000380: 0508 8a3d 0295 3d3d d1ec ae3d 05e9 7a3d
00000390: f1f8 a73d 6ac3 d8bc e5a0 cdbc 7cd4 a43d
000003a0: b30b 673d e78a 90bd e2cc e4bc 3443 67bc
000003b0: e4d0 ab3d a8f4 d73c e759 d83c 332b 92bd
000003c0: 1b46 713c 942b ea3a 85e2 933d 6b24 3abd
000003d0: 35b1 53bc 4c0b 573d 486d 953d 91d9 e33c
000003e0: dbab a33d cd55 d93c 9797 9e3d 7943 f7bc
000003f0: b839 41bd 4e96 ca3d e881 b93c a2c8 e23c
0.063942134 0.007468908 -0.056446724 -0.03343004 -0.20218217 -0.19670811 0.19024903 -0.063786864
0.18764982 -0.13593063 -0.019976137 0.033010233 0.0016377512 -0.115463346 -0.23151694 0.043214414
0.0023745098 0.0073999856 -0.0031530266 -0.027230427 -0.116187595 -0.040295877 -0.18317543 0.117136285
-0.17794587 -0.061336987 -0.0067633023 0.016201992 -0.039263275 0.062801704 -0.21894634 0.17730688
0.0020333906 -0.18183067 -0.06423102 0.022509117 -0.017842421 -0.20841695 -0.23877521 0.022372093
0.06889716 0.031725615 0.22986747 0.06546177 0.033730246 0.2034642 0.05004457 0.2734631
0.22235212 -0.027622908 0.17603897 -0.13174173 -0.08371681 0.16337927 0.073580064 -0.1645603
-0.064658314 -0.14211094 -0.029014168 0.2170457 0.1772026 0.061156422 0.08247466 -0.006794166
-0.18958908 -0.1680562 0.17263873 0.16921702 0.06936905 -0.048127368 -0.0074871522 -0.045161128
-0.20372616 -0.023719765 0.02977578 -0.059013266 -0.1765489 0.059246022 -0.07191656 -0.010522547
-0.020561215 -0.14353478 0.2795235 -0.028830428 -0.1604381 0.07923523 -0.07310419 -0.010084755
-0.00463114 -0.07831734 0.20787868 -0.22945872 0.15497117 0.09149823 0.020942047 0.25736645
-0.12336452 0.23766053 0.06372642 -0.09083743 -0.18024044 0.043397017 -0.10079495 0.0447387
0.25576514 0.005614704 0.26449654 -0.05252138 0.10052692 -0.075347714 0.011890936 -0.029888425
-0.07763456 -0.04712584 0.047273282 0.025154922 -0.060455445 -0.089197725 0.2697751 -0.14069194
-0.0340916 -0.0023662476 -0.10011073 0.056796163 0.06892037 -0.1747906 0.039922524 -0.037653703
0.011569243 0.01846612 -0.01024494 -0.04107601 0.09324276 0.14921962 0.042653546 0.03395851
0.0778804 0.041968264 0.06323572 -0.062453415 -0.041434046 0.084589824 0.092204936 -0.07227938
0.02514804 0.05043582 0.08306442 0.005742325 0.031352043 -0.047874596 0.03792871 0.060128693
0.114720196 -0.010509315 0.018488178 0.020898145 0.05806096 -0.07454361 0.15221363 0.08221756
-0.062950104 0.054875296 -0.019258106 -0.04329497 -0.06898778 0.08715792 0.13127998 0.083614685
-0.025139576 -0.038901884 0.0110529745 0.079915494 -0.013231729 -0.041881353 -0.009695338 0.028757615
0.025575733 0.07540781 0.04731742 -0.0032102244 0.04748548 0.065282434 -0.060201734 0.044552285
0.100233644 0.08569902 0.01724515 0.038480263 -0.010776672 0.071427986 -0.059982453 -0.003658979
0.078839086 0.034314945 0.041579816 0.06502834 0.013706465 0.0562572 0.01677534 -0.012082508
0.12556343 0.014871505 0.035393704 0.03728351 0.07130723 -0.0131728025 0.05895354 0.010861515
0.06354199 0.0932003 0.006735633 -0.033864636 0.008544918 -0.06544104 0.029961979 -0.007165596
0.067788094 -0.02324723 0.060072828 0.03297079 0.006293392 0.0049719485 -0.017423956 -0.0060365684
0.06739811 0.046284683 0.08541263 0.06125738 0.08201779 -0.026460368 -0.025101135 0.08048341
0.05640764 -0.070577435 -0.027929727 -0.014115144 0.08389452 0.026361778 0.026410056 -0.07137146
0.014726187 0.001786577 0.072209395 -0.045444887 -0.012920667 0.052501008 0.07296234 0.027813705
0.07991763 0.02653017 0.07743757 -0.03018354 -0.047174186 0.098919496 0.022644952 0.02768356

mlp.4.bias f4 [4]
00000000: 5049 86bb f595 be3d 72ae a53d e167 443d
-0.004098095 0.09305946 0.080899134 0.04795063
