models/nerf_model.pth (torch, 103590 bytes, 6 tensors)

mlp.0.weight f4 [128, 63]
0	0x3cc69c4f	0.024244456
1	0x3e280823	0.16409354
2	0x3e6dea5c	0.23233932
3	0x3c8d9550	0.017283112
4	0xbc82818b	-0.015930912
5	0x3e95c506	0.2925188
6	0xbc1d6308	-0.00960613
7	0xbcb6e449	-0.022325652
8	0x3bda1677	0.00665551
9	0x3da96794	0.08271709
10	0x3badefae	0.005308113
11	0x3e4ad3f5	0.19807418
12	0xbe226ace	-0.15861055
13	0x3d61f3c3	0.05516411
14	0x3cad8d97	0.02118568
15	0x3db7d76d	0.08976636
16	0xbd92d4be	-0.071694836
17	0x3e11a96a	0.14224783
18	0x3da39bef	0.07988726
19	0x3d8c8bb1	0.068625815
20	0x3e280321	0.16407444
21	0xbbbe0de6	-0.0057999967
22	0x3cae0485	0.02124239
23	0xbbf727c7	-0.0075425836
24	0xbd0066ed	-0.031348158
25	0x3d87accd	0.06624756
26	0x3d9d043c	0.07666823
27	0x3a53a8e8	0.000807418
28	0x3d057a42	0.032587297
29	0xbd8e59a4	-0.06950691
30	0x3d952ad6	0.07283561
31	0x3dd799c9	0.10527379
32	0x3e0ac7ac	0.13552731
33	0x3c85b0d4	0.01631967
34	0x3cba06e7	0.02270837
35	0xbd0e3752	-0.034720726
36	0x3d9cdee5	0.07659701
37	0x3c032f54	0.008006889
38	0xbce0b079	-0.027427899
39	0x3dc55674	0.0963563
40	0x3d786db6	0.060651504
41	0xbc8723e4	-0.016496606
42	0xbcba8984	-0.02277065
43	0x3dbf5ec5	0.09344248
44	0xbd4bda01	-0.04976845
45	0xbc0273bf	-0.007962166
46	0xbcacc7d3	-0.021091377
47	0xbd36ee91	-0.04466111
48	0x3db33585	0.087504424
49	0x3c67abf3	0.014140117
50	0xbd341db8	-0.043973655
51	0xbdabd3f4	-0.08390036
52	0xbc028914	-0.007967252
53	0x3c8795a3	0.016550845
54	0x3cb1379e	0.021632966
55	0x3db8065b	0.08985587
56	0xbcab3bad	-0.020902479
57	0x3bfdd806	0.0077466993
58	0xbc29784c	-0.010343622
59	0xbbddcd9f	-0.0067688967
60	0x3bb39847	0.0054807994
61	0x3d1d8136	0.038453303
62	0x3d3a129f	0.045427915
63	0x3d1492b0	0.036272705
64	0x3d9e0fc0	0.07717848
65	0x3d9aa54d	0.0755106
66	0x3d7803da	0.060550548
67	0xbdf2c409	-0.11853797
68	0x3e3489a8	0.17630637
69	0xbdaf2427	-0.085518174
70	0xbc10204c	-0.008796763
71	0xbd6179d0	-0.05504781
72	0xbd178f2c	-0.037001774
73	0x3d9ec265	0.077519216
74	0xbd3775b7	-0.044789996
75	0x3d3232ac	0.043505356
76	0xbd48bc75	-0.04900785
77	0x3d37b0c9	0.04484633
78	0x3d85c80e	0.06532298
79	0x3d1af95c	0.037835464
80	0x3dab18d1	0.08354343
81	0xbcd488f1	-0.025944205
82	0x3c76975c	0.015050735
83	0x3db0ce7f	0.08633136
84	0xbcdf4848	-0.027256146
85	0x3d524bf1	0.051341955
86	0xbdad2055	-0.084534325
87	0xbcae7a79	-0.021298634
88	0xbc7a51eb	-0.01527832
89	0xbd6580d7	-0.056031074
90	0xbb9efaef	-0.004851691
91	0xbda38f84	-0.07986358
92	0x3dd05954	0.10173288
93	0xbdb6fc3e	-0.0893483
94	0xbc78d2af	-0.01518695
95	0xbdc67dce	-0.09691964
96	0xbdd0715c	-0.101778716
97	0xbc0920ee	-0.008369667
98	0x3d6eba0c	0.058282897
99	0xbdb84ed5	-0.08999411
100	0xbc3325db	-0.010934318
101	0xbd21951f	-0.039448854
102	0xbd703516	-0.058644377
103	0xbd71643f	-0.058933493
104	0x3e02a79f	0.12759255
105	0xbcef9244	-0.02924455
106	0xbcabd3a7	-0.020974947
107	0xbd342f51	-0.043990437
108	0xbd054c64	-0.032543555
109	0x3c616d0a	0.013758907
110	0x3c1022c9	0.008797356
111	0xbd9cfbf6	-0.07665245
112	0x3d853afc	0.06505391
113	0xbd26ea8a	-0.040751018
114	0x3da1f07c	0.07907197
115	0x3d9d8fa2	0.076934114
116	0xbdbca2cc	-0.092107385
117	0x3a4dfbd1	0.0007857653
118	0x3cc2c8e0	0.023777425
119	0xbd6d039a	-0.057864763
120	0xbd915d4b	-0.07097872
121	0x3d1cbce0	0.038266063
122	0x3ca95fe5	0.020675609
123	0xbc2c9ad1	-0.010534958
124	0xbc94525b	-0.018105676
125	0xbc42c2f1	-0.011887298
126	0x3d7c3304	0.06157209
127	0x3ca179e1	0.019711437
128	0xbe1de9da	-0.15421239
129	0x3d63d200	0.055620193
130	0xbdccc88a	-0.09999187
131	0xbd4c4163	-0.049867045
132	0x3cd1e1f8	0.025620446
133	0xbd11007e	-0.03540086
134	0xbd33c524	-0.04388918
135	0xbda34a26	-0.07973127
136	0x3dd37f6d	0.10327039
137	0xbe2418a9	-0.16025032
138	0x3d372e00	0.044721603
139	0xbd6cf3fa	-0.05784986
140	0xbe2d1b5c	-0.16904968
141	0xbcf4ce98	-0.029883668
142	0x3d8a59b0	0.06755388
143	0x3e1cb0c8	0.15301812
144	0xbe1d5348	-0.153638
145	0x3cef17c6	0.02918614
146	0xbdade48a	-0.08490856
147	0x3d9743dd	0.07385991
148	0xbe1a0e49	-0.15044512
149	0xbd9056a1	-0.07047773
150	0xbe145da8	-0.14488852
151	0xbd5ee8ea	-0.054421343
152	0x3d9570c9	0.07296903
153	0xbe59bd96	-0.21263728
154	0xbdb6ade8	-0.08919889
155	0x3c475968	0.012167312
156	0xbc8ed164	-0.01743383
157	0x3e36a91d	0.17837949
158	0xbe84fa74	-0.2597233
159	0xbdf5779b	-0.119857036
160	0x3d9e5016	0.07730119
161	0x3dd4e08f	0.10394394
162	0x3d8e8ce8	0.069604695
163	0xbd6d1a17	-0.05788621
164	0x3d6d6a93	0.057962965
165	0x3d35a721	0.04434884
166	0xbdb368fd	-0.08760259
167	0x39a5b93e	0.0003160927
168	0xbb83442b	-0.004005929
169	0x3de47dc5	0.11156801
170	0xbd0e43a9	-0.034732495
171	0x3e207d8a	0.1567289
172	0xbe03b364	-0.12861401
173	0x3d9af0fa	0.07565494
174	0xbd846474	-0.064644724
175	0xbdf0724e	-0.11740552
176	0x3dd00fa2	0.10159232
177	0x3e09a2e6	0.13441047
178	0x3dfa56c2	0.12223579
179	0xbc051ae8	-0.008124091
180	0xbdd32589	-0.10309894
181	0x3df844a7	0.121224694
182	0xbe0500e2	-0.12988618
183	0xbdf43776	-0.11924641
184	0xbd6a67b9	-0.057227824
185	0xbe0f2885	-0.139803
186	0xbe077690	-0.13228822
187	0x3e07ccf9	0.13261785
188	0xbcc2db6b	-0.023786267
189	0xbc82b0ef	-0.01595351
190	0xbd09a1e4	-0.033601657
191	0xbda17f77	-0.0788564
192	0xbdf9d7d5	-0.1219937
193	0x3d2f5f92	0.042815752
194	0xbd78819f	-0.06067049
195	0x3d4e1de7	0.050321486
196	0xbc069821	-0.008214981
197	0xbdf15bd7	-0.11785095
198	0xbd755abd	-0.059900988
199	0xbd044b5d	-0.032298435
200	0x3d8c58ff	0.06852912
201	0x3cf5b280	0.029992342
202	0xbe1af01d	-0.15130658
203	0x3b83cc9f	0.0040221955
204	0x3dd2de28	0.10296279
205	0x3dca7e66	0.0988739
206	0x3e332331	0.17493893
207	0xbd7d767d	-0.061880577
208	0x3ce36217	0.027756734
209	0x3cda855c	0.026674919
210	0x3c09fd4a	0.008422205
211	0xbc27fe09	-0.010253438
212	0x3cc2429c	0.023713402
213	0x3ac939b2	0.0015352278
214	0xbe075a9f	-0.13218163
215	0x3c44bd32	0.012007998
216	0xbd6c341a	-0.057666875
217	0x3c6a2546	0.014291113
218	0x3d2769f5	0.040872533
219	0x3d8f0deb	0.069850765
220	0x3d972eae	0.0738195
221	0xbd98b732	-0.07456817
222	0x3cbbf5cc	0.022944354
223	0xbc29bedc	-0.010360446
224	0x3dab6939	0.08369679
225	0xbc29b8d5	-0.010359009
226	0xbd8a7812	-0.06761183
227	0x3d7b4f57	0.06135496
228	0x3d68b75c	0.05681549
229	0xbd11ed52	-0.035626717
230	0xbced9cc9	-0.029005425
231	0xbc93f1f3	-0.018059706
232	0x3d6e82f4	0.058230355
233	0x3d3fefcd	0.04685955
234	0xbccb7047	-0.024833811
235	0xbd200cef	-0.039074834
236	0xbc9c4350	-0.019075066
237	0xbcf3e661	-0.02977294
238	0x3d0ae33e	0.03390812
239	0x3ca6d2d6	0.020364206
240	0xbd857507	-0.06516462
241	0x3cb5aefa	0.022178162
242	0xba8e7ce0	-0.0010870956
243	0xbdca1f40	-0.09869242
244	0x3d811e8e	0.06304656
245	0xbac6b80b	-0.001516105
246	0x3d36ad01	0.044598583
247	0x3dab26a4	0.083569795
248	0x3b9e779f	0.0048360373
249	0xbd823fbd	-0.06359813
250	0x3d887d60	0.066645384
251	0x3db553a1	0.088538416
252	0xbe34e1d2	-0.17664269
253	0xbdcc11db	-0.09964343
254	0xbd67fe6c	-0.05663912
255	0xbe79888a	-0.24368492

mlp.0.bias f4 [128]
0	0xbd7df23f	-0.061998602
1	0x3d7e2ee3	0.062056433
2	0x3bc9f3b2	0.006163084
3	0xbc832649	-0.016009467
4	0xbc214987	-0.00984419
5	0xbd2ac4de	-0.041691653
6	0xbdb36c7e	-0.087609276
7	0xbdec6b41	-0.115438946
8	0x3d4f7c87	0.050655868
9	0xbe0f966f	-0.1402223
10	0xbda69f48	-0.08135849
11	0xbdd2fde9	-0.10302336
12	0xbdfd04ef	-0.12354457
13	0xbe0084e0	-0.12550688
14	0xbdb9112b	-0.09036478
15	0xbdab934c	-0.08377704
16	0xbda7da98	-0.0819599
17	0xbe00867b	-0.125513
18	0xbdff870b	-0.12476929
19	0xbe0bcd41	-0.13652517
20	0x3dab2069	0.08355791
21	0xba89d4e9	-0.0010515723
22	0x3d8bf9c2	0.06834747
23	0x3d5494e4	0.051899806
24	0x3dc349fc	0.09535596
25	0x3c4bb6ea	0.012433747
26	0xbd96de2f	-0.07366597
27	0xba99716f	-0.001170678
28	0xbdb48469	-0.08814318
29	0xbdd31233	-0.103062056
30	0x3c28d8e2	0.010305615
31	0x3cf30a82	0.029668096
32	0xbdeb0933	-0.11476364
33	0xbdef1871	-0.11674584
34	0xbe204e58	-0.15654886
35	0xbd185c63	-0.03719748
36	0x3d28d7b2	0.041221328
37	0x3e01e2f2	0.12684229
38	0x3af7a230	0.001889294
39	0x3d1c5eaf	0.038176235
40	0xbc9badda	-0.019003797
41	0x3da1d007	0.07901006
42	0xbd89956b	-0.06717952
43	0xbc466046	-0.012107914
44	0x3d958b57	0.073019676
45	0xbbf6c160	-0.0075303763
46	0x3dd0aace	0.101888284
47	0xbd950495	-0.072762646
48	0x3dc180ed	0.09448419
49	0x3da17073	0.07882776
50	0x3bb2aef0	0.005452983
51	0x3d18d634	0.037313655
52	0xbc5c3392	-0.01344003
53	0xbbc08bb9	-0.0058760312
54	0x3bc0225e	0.005863472
55	0xbde5383d	-0.11192367
56	0xbdfa123d	-0.1221051
57	0xbd7f2481	-0.062290672
58	0xbc28dff1	-0.010307298
59	0x3d17baac	0.03704326
60	0xbb996d30	-0.0046822056
61	0x3d09ad92	0.033612795
62	0x3b4d4b27	0.0031325312
63	0xbdcf8dd8	-0.101344764
64	0x3dca306c	0.09872517
65	0xbb18b8ca	-0.0023303502
66	0xbd9197bf	-0.071090214
67	0xbe001928	-0.12509596
68	0xbd5a83de	-0.053348415
69	0xbdb39f82	-0.08770658
70	0x3d030f86	0.031997226
71	0xbd515f7d	-0.051116455
72	0xbd291a14	-0.041284636
73	0xbdff8a49	-0.12477548
74	0x3d725d3e	0.059170954
75	0xbdc3daf8	-0.09563249
76	0xbd9b4d60	-0.075831175
77	0xbcaac900	-0.020847797
78	0x3d0d33b7	0.034473147
79	0x3d82109c	0.06350824
80	0xbc7ee170	-0.015556678
81	0x3df5514e	0.11978398
82	0x3d63234d	0.055453587
83	0x386c649d	5.6360488e-05
84	0xbddb5219	-0.10709018
85	0xbe093059	-0.1339735
86	0x3d8b645c	0.068062514
87	0xbd9e4fe0	-0.07730079
88	0x3ca4ad75	0.020102242
89	0x3e14e0e6	0.14538917
90	0xbda176a6	-0.078839585
91	0xbb4f6ce6	-0.0031650602
92	0x39872110	0.0002577384
93	0x3dd58ca5	0.104272164
94	0xbe028785	-0.12747009
95	0x3d9ec423	0.07752254
96	0x3de694e0	0.112588644
97	0xbd858c15	-0.06520859
98	0x3dc32274	0.09528056
99	0x3d45db6a	0.048304953
100	0x3df8ecf3	0.121545695
101	0xbc325bbf	-0.010886132
102	0x3dc49402	0.09598543
103	0xbdc910d6	-0.09817664
104	0x3db45c2f	0.08806645
105	0xbddd3434	-0.108009726
106	0x3dabf260	0.08395839
107	0xbe0172f2	-0.12641504
108	0x3d1a43df	0.037662383
109	0x3de3cf5c	0.11123535
110	0x3c8c26ab	0.017108282
111	0xbdf4ee34	-0.11959496
112	0xbdfc0586	-0.12305741
113	0xbd1200d4	-0.03564532
114	0x3cfe9db3	0.031081056
115	0xbdb1dbb1	-0.08684481
116	0x3ce5c6eb	0.028048953
117	0x3c16e8b2	0.009210752
118	0xbc8dcfc8	-0.017310992
119	0xbd76fc5f	-0.060299274
120	0x3d6bca03	0.0575657
121	0xbcf5ac5b	-0.029989412
122	0xbe09ce84	-0.13457686
123	0xbb36c296	-0.0027886978
124	0x3c7c3be4	0.015395138
125	0x3d47aa0a	0.048746146
126	0x3d375627	0.044759896
127	0xbd3535aa	-0.04424063

mlp.2.weight f4 [128, 128]
0	0xbd0226b4	-0.03177519
1	0xbc5f2a4a	-0.013620922
2	0xbd845402	-0.06461336
3	0x3d764443	0.060123693
4	0xbd2939c0	-0.04131484
5	0xbc166341	-0.009178937
6	0xbcf3d328	-0.029763773
7	0x3d1264c9	0.035740647
8	0xbd98b304	-0.074560195
9	0xbcddbeb3	-0.027068472
10	0xbd8eb8ee	-0.06968866
11	0xbd9f05ef	-0.077648036
12	0xbd147f8d	-0.036254454
13	0x3d4251f7	0.04744145
14	0xbd8a0f05	-0.06741146
15	0x3ca48a8d	0.020085597
16	0xbda00605	-0.07813648
17	0xbd937522	-0.07200076
18	0xbd9c946f	-0.07645499
19	0x3ca3b53e	0.019983884
20	0xbd30e103	-0.043183338
21	0xbdb2d431	-0.087318785
22	0xbd26d548	-0.040730745
23	0x3bf3f49a	0.0074449303
24	0xbb544e92	-0.0032395464
25	0xbd8002b5	-0.06250516
26	0x3d82b813	0.063827656
27	0x3d32ff02	0.043700226
28	0xbd8b073e	-0.06788491
29	0xbd803136	-0.06259386
30	0xbc0d2916	-0.008615753
31	0xbce7a245	-0.028275618
32	0x3b6150c5	0.0034380418
33	0xbd586dbd	-0.05283903
34	0xbc341d5c	-0.010993328
35	0xbcf8c9f6	-0.03036974
36	0x3bab5eb2	0.0052297944
37	0xbcd5c3a0	-0.026094258
38	0xbd83de77	-0.06438916
39	0xbd2d213e	-0.04226803
40	0xbd3f4052	-0.0466922
41	0x3d937952	0.072008744
42	0xbd431ae3	-0.047633063
43	0x3c794c4e	0.015215946
44	0xbc510b56	-0.01275905
45	0xbdaaa0c7	-0.08331447
46	0xbdb664bb	-0.089059316
47	0xbd1a1ab3	-0.03762312
48	0x3d50152c	0.05080144
49	0xbd8113d3	-0.06302609
50	0xbcd64ea8	-0.026160553
51	0x3d4e6f64	0.0503992
52	0xbc2efb48	-0.010680027
53	0xbd082849	-0.033241544
54	0xbda68bd2	-0.08132137
55	0x3cd01032	0.025398348
56	0xbd5cb496	-0.053883158
57	0xbd6f007e	-0.05835008
58	0xbd7f8180	-0.06237936
59	0xbcdb1ff4	-0.026748635
60	0xbdb5d928	-0.0887931
61	0xbd8b8400	-0.068122864
62	0xbd8fec52	-0.070274964
63	0x3ca8815a	0.020569492
64	0xbdbdad20	-0.092615366
65	0x3d1b6f29	0.037947807
66	0xbd74f5cb	-0.05980472
67	0xbcd09155	-0.025459925
68	0xbd85f5ec	-0.065410465
69	0x3c16835d	0.009186593
70	0x3d297956	0.04137548
71	0xbca0eae5	-0.019643256
72	0xbdd1e873	-0.10249414
73	0xbd3068c7	-0.043068673
74	0xbd93711d	-0.07199309
75	0xbd8c75a0	-0.06858373
76	0xbd61f053	-0.05516083
77	0x3c3b3d74	0.011428226
78	0xbcbf18b0	-0.023327202
79	0xbdd4494b	-0.10365542
80	0xbd814c49	-0.06313378
81	0x3d26f0db	0.04075704
82	0x3d0eae51	0.03483421
83	0xbdcd6e33	-0.100307845
84	0xbd9d7f9e	-0.07690357
85	0xbdc442ac	-0.09583029
86	0xbd459719	-0.0482398
87	0xbc7385f5	-0.014863481
88	0x3c37c6b3	0.011216807
89	0xbd9649b8	-0.073382795
90	0xbdc57dbf	-0.09643125
91	0x3b64d732	0.0034918305
92	0xbc95c493	-0.01828221
93	0xbdc1caa0	-0.09462476
94	0xbce871cb	-0.028374573
95	0xbb0a544a	-0.002110737
96	0xbdd3f7ae	-0.103499755
97	0xbdb8f624	-0.090313226
98	0xbd800563	-0.062510274
99	0xbd50d402	-0.050983436
100	0x3b062bfc	0.0020472994
101	0xbd65bd7b	-0.056088906
102	0xbd8685f4	-0.06568518
103	0x3bf16a2c	0.007367393
104	0x3d4ce350	0.05002147
105	0x3a8dc1ec	0.001081524
106	0xbd4ea7a5	-0.050452847
107	0xbdc4604f	-0.09588682
108	0x3c9505ca	0.018191237
109	0xbaf55789	-0.0018718104
110	0x3d496bd9	0.049175117
111	0xbd70f38d	-0.058826018
112	0xbc210171	-0.009827004
113	0x3b4e94e4	0.0031521851
114	0xbcdb93f7	-0.026803954
115	0xbcc48b91	-0.023992332
116	0x3d451006	0.048110984
117	0xbd6c35a4	-0.057668343
118	0x3cda71e8	0.026665643
119	0x3bb37817	0.0054769623
120	0xbdad4166	-0.084597394
121	0x3d09303d	0.03349327
122	0xbd71b76b	-0.05901281
123	0x3d8328e0	0.06404281
124	0xbd47b2c6	-0.048754476
125	0x3d85e810	0.06538403
126	0xbd3aef02	-0.04563809
127	0x3cfdfe45	0.031005034
128	0x3d310320	0.04321587
129	0x3d78e32b	0.06076352
130	0x3d5542d1	0.052065674
131	0xbdba897c	-0.09108254
132	0x3cc440a9	0.023956614
133	0xbdc6f230	-0.09714162
134	0x3cd4d083	0.025978332
135	0xbd9cb0a3	-0.07650878
136	0x3c0452b8	0.008076362
137	0xbd80bb07	-0.06285673
138	0xbcdd4939	-0.027012454
139	0xbdc17892	-0.09446825
140	0xbd5e034c	-0.054202363
141	0xbd8a71f6	-0.067600176
142	0x3d168680	0.036749363
143	0xbbd60084	-0.006530823
144	0xbd8fc857	-0.07020634
145	0xbd89025e	-0.06689905
146	0xbbb73094	-0.0055905078
147	0xbd085231	-0.03328151
148	0x3d6a7980	0.057244778
149	0xbd96aecd	-0.07357559
150	0xbdc73549	-0.0972696
151	0x3d621ee3	0.055205237
152	0x3d028098	0.031860918
153	0xbd7aa0f0	-0.06118864
154	0xbd1a2b9c	-0.037639245
155	0xbddad316	-0.10684793
156	0xbd1d51d0	-0.0384081
157	0x3d17927a	0.037004925
158	0xbd496705	-0.049170513
159	0xbdc56374	-0.0963811
160	0xbd8a2e45	-0.067471065
161	0xbda384b0	-0.079842925
162	0xbbbbafaa	-0.005727728
163	0x3c3b4a45	0.011431281
164	0xbc9ac0b7	-0.018890722
165	0xbd9d61cc	-0.07684669
166	0xbdc63532	-0.09678115
167	0x3d64977c	0.05580853
168	0x3d592b6a	0.05301992
169	0xbdc54764	-0.09632757
170	0x39f027b4	0.00045805948
171	0x3c2470fc	0.010036703
172	0xbcfd62a6	-0.030930828
173	0xbd224be7	-0.039623167
174	0xbd34f827	-0.04418197
175	0xbb92b77d	-0.00447744
176	0x3cf13ccb	0.029447934
177	0xbc72606a	-0.014793495
178	0xbb2fe722	-0.0026840647
179	0xbdd07fb3	-0.10180607
180	0xbbcbfd44	-0.00622526
181	0xbbf3b622	-0.0074374834
182	0xbd28a70f	-0.041174944
183	0xbc95a222	-0.018265788
184	0x3a8b4a2b	0.0010626962
185	0xbc8735df	-0.01650518
186	0x3d27d565	0.040974993
187	0xbdb06356	-0.08612697
188	0x3c29a5e3	0.010354492
189	0x3d28e255	0.041231472
190	0xbdaa3410	-0.083107114
191	0x3d522518	0.051304907
192	0xbd8c5b22	-0.0685332
193	0xbd94a9ee	-0.07258974
194	0x3bc88624	0.0061195064
195	0xbb116c4d	-0.0022189796
196	0x3d34dd59	0.044156406
197	0x3d873993	0.06602778
198	0xbc7aad8e	-0.015300168
199	0xbce6976c	-0.028148375
200	0x3d33a3ba	0.043857314
201	0x3c9b0416	0.018922847
202	0x3d290a5a	0.041269638
203	0xbdc81caf	-0.09771096
204	0xbdca2128	-0.09869605
205	0x3cbda080	0.023147821
206	0xbd6ba5ce	-0.05753117
207	0xbd98df07	-0.07464414
208	0x3d48349e	0.048878305
209	0xbb09fbf0	-0.0021054707
210	0x3c13662d	0.008996529
211	0xbbf448fd	-0.00745499
212	0x3ca12553	0.019671118
213	0xbd9fc1bf	-0.07800626
214	0xbd9b9ada	-0.07597895
215	0xbdcd5dbe	-0.100276455
216	0xbd3cc31d	-0.046084512
217	0xb94a8f85	-0.00019317686
218	0x3d8beee2	0.06832673
219	0x3d8b4d53	0.06801858
220	0xbc9cdb9d	-0.019147689
221	0xbdbe0672	-0.09278573
222	0xbd830851	-0.063980706
223	0xbd195369	-0.03743306
224	0xbda8b8ee	-0.082383975
225	0x3cb2252a	0.021746237
226	0xbd78a740	-0.060706377
227	0xbd9adf95	-0.07562176
228	0x3b9c0b8f	0.00476212
229	0x3b0afc75	0.0021207605
230	0x3d11d748	0.0356057
231	0x3d71e57a	0.059056737
232	0x3c952f6c	0.01821109
233	0x3d1fb0f1	0.038987104
234	0x3d656fe3	0.056014907
235	0xbdb8ce2f	-0.090237014
236	0x3c602788	0.0136813
237	0x3d39660d	0.04526334
238	0xbd8a5aa7	-0.06755572
239	0x3c7b8f2e	0.015353961
240	0xbca8b730	-0.020595163
241	0x3d586628	0.0528318
242	0xbcd6ae9c	-0.026206307
243	0x3d09d300	0.03364849
244	0xbcb9a880	-0.022663355
245	0xbd8da07c	-0.069153756
246	0xbc69c07d	-0.014267084
247	0xbd01bb24	-0.03167261
248	0xbc41cff5	-0.011829366
249	0xbd89a505	-0.06720928
250	0x3d53d0e1	0.051712874
251	0x3d7dbaa8	0.061945587
252	0xbca09384	-0.019601591
253	0x3d453b7e	0.04815244
254	0xbaa4281e	-0.0012524163
255	0xbd7ecf1d	-0.062209237

mlp.2.bias f4 [128]
0	0x3d0205a2	0.031743653
1	0xbdaa2fae	-0.083098754
2	0xbccf9940	-0.02534163
3	0xbd931380	-0.07181454
4	0xbd123f80	-0.03570509
5	0xbdce746a	-0.10080798
6	0x3dc2a330	0.09503782
7	0x3cb87a89	0.022519367
8	0x3d2d57e6	0.042320155
9	0xbcbaa19e	-0.022782143
10	0xbd72e573	-0.05930085
11	0xbd18419e	-0.037171952
12	0x3d1b1067	0.03785744
13	0xbcaf984e	-0.02143493
14	0xbd530436	-0.051517688
15	0x3d9a587b	0.075364076
16	0xbc8daa6c	-0.017293178
17	0xbd984ba1	-0.074363
18	0xbdad48d4	-0.084611565
19	0xbd29a0b1	-0.041413013
20	0xbd0293cf	-0.031879243
21	0xbd4935c7	-0.04912355
22	0xbd8cb978	-0.06871313
23	0x3dcd1fc4	0.100158244
24	0x3c54c2a5	0.01298586
25	0x3d8f6a75	0.07002727
26	0xbd9dec25	-0.077110566
27	0xbd85d81f	-0.065353625
28	0x3da71f52	0.08160271
29	0xbd4f136d	-0.050555635
30	0x3d4c71f4	0.04991336
31	0x3ddbfde8	0.10741788
32	0xbcf2473e	-0.029574987
33	0x3d1303a9	0.035892162
34	0x3dc3369e	0.09531902
35	0x3cc76457	0.024339838
36	0xbdc72eb9	-0.097257085
37	0x3cfa3892	0.030544553
38	0xbd1432cc	-0.036181256
39	0x3d819697	0.06327551
40	0x3dd90e91	0.105984814
41	0xbc35f003	-0.0111045865
42	0x3d319dd1	0.043363396
43	0xbdc8bec5	-0.098020114
44	0x3d2c525e	0.04207074
45	0xbd69e714	-0.05710514
46	0xbd8e2d8b	-0.069422804
47	0xbcd3a285	-0.025834331
48	0xbd70d834	-0.058799937
49	0x3af049aa	0.00183325
50	0x3cc47bc5	0.0239848
51	0x3dd70e63	0.10500791
52	0xbdc4ff2e	-0.09618984
53	0x3d3e0603	0.046392452
54	0x3d783007	0.060592677
55	0xbd9465f6	-0.0724601
56	0xbca0af67	-0.019614888
57	0xbcdd46b3	-0.027011251
58	0x3dd17d26	0.10228948
59	0xbda54b95	-0.08071057
60	0xbce4e0be	-0.027939197
61	0xbca12af3	-0.0196738
62	0x3d77a7d4	0.060462788
63	0x3c3735d9	0.011182272
64	0x3ca7b568	0.020472243
65	0xbd8dc6bd	-0.06922672
66	0x3cc165ee	0.023608174
67	0xbce947b9	-0.028476583
68	0x3cfb4a0f	0.030674962
69	0xbdb76f54	-0.08956781
70	0x3cc58ef5	0.024116019
71	0xbca2a28b	-0.019852897
72	0x3d716169	0.05893079
73	0x3d3f7429	0.04674164
74	0xbdc65798	-0.09684676
75	0x3c8b9605	0.017039308
76	0x3da4f834	0.080551535
77	0xbd690ab2	-0.056894965
78	0x3cc789ae	0.024357643
79	0x3d080f02	0.033217438
80	0x3dd685de	0.10474752
81	0xbd40c221	-0.047060136
82	0xbd98162c	-0.07426104
83	0xbcd9f2ed	-0.026605094
84	0xbbe0f92d	-0.0068656416
85	0xbd354165	-0.04425182
86	0xbd664c93	-0.05622537
87	0x3dd371f2	0.10324468
88	0xbda0e027	-0.07855254
89	0xbd5d664e	-0.054052643
90	0xbd2bf288	-0.041979343
91	0xbc78ae05	-0.015178208
92	0x3c99367d	0.01870274
93	0xbdb4d5c3	-0.08829834
94	0xbcada3b8	-0.021196231
95	0xbb685493	-0.00354508
96	0x3ce794d0	0.028269202
97	0x3cb0a79e	0.021564301
98	0x3d5af229	0.0534536
99	0xbd1db2ad	-0.038500477
100	0xbd67d9e0	-0.056604266
101	0xbd2cf9a5	-0.042230267
102	0x3c803148	0.0156485
103	0xbd3f9f53	-0.046782803
104	0xbd8379d2	-0.0641972
105	0xbd2167f1	-0.039405767
106	0x3d9a7232	0.07541312
107	0x3d9695ac	0.073527664
108	0x3d40bf08	0.04705718
109	0xbc1b2d6b	-0.009471278
110	0xbd880e84	-0.06643394
111	0x3de762f6	0.11298172
112	0x3ce7064a	0.028201241
113	0x3d3be441	0.045871977
114	0x3d5d744a	0.05406598
115	0x3c8baaaa	0.017049152
116	0x3c8ecbf2	0.017431233
117	0x3dcf99b0	0.101367354
118	0xbc87f64c	-0.016596936
119	0xbc5b8fa7	-0.013400949
120	0x3d2b6455	0.04184373
121	0x3cd07453	0.025446093
122	0x3cd36c85	0.025808582
123	0x3c36bf2e	0.011153979
124	0x3def0a09	0.11671836
125	0x3d977f1b	0.0739729
126	0xbcd5ac20	-0.026083052
127	0xbcd3bc49	-0.025846617

mlp.4.weight f4 [4, 128]
0	0x3c88e03a	0.016708482
1	0x3d030fbc	0.031997427
2	0xbe3b9d95	-0.18321832
3	0xbc92a111	-0.017899068
4	0x3c0990c1	0.008396328
5	0x3daad01b	0.08340474
6	0x3d28faf5	0.041254956
7	0xbdb00e78	-0.0859651
8	0xbe0845a1	-0.13307811
9	0xbe431e57	-0.19054542
10	0x3d81be9c	0.06335184
11	0xbc703b01	-0.014662505
12	0xbd139fdc	-0.036041126
13	0xbdf869fe	-0.121295914
14	0xbc9e457a	-0.019320238
15	0xbddaf1ab	-0.10690626
16	0x3c87b6f8	0.016566738
17	0xbd2b1328	-0.041766316
18	0xbc65d4f9	-0.014027827
19	0xbcf773f8	-0.030206665
20	0x3d6c20e2	0.057648547
21	0x3c93e59c	0.018053822
22	0xbdaf4029	-0.085571595
23	0x3e80cdd0	0.25157022
24	0x3c587072	0.013210403
25	0xbe59729b	-0.21235125
26	0xbd03343d	-0.03203224
27	0x3e910727	0.2832577
28	0xbe204e76	-0.1565493
29	0x3d67510d	0.05647378
30	0xbdb5caf7	-0.08876603
31	0x3e242000	0.16027832
32	0xbcfcf488	-0.03087832
33	0x3e7d1fe1	0.24719192
34	0x3dfd58a8	0.123704255
35	0xbd76657c	-0.060155377
36	0xb9aa8abf	-0.000325283
37	0xbe64c071	-0.22339036
38	0xbdffd79d	-0.12492297
39	0x3de52b55	0.111899056
40	0xbe0ffb85	-0.14060791
41	0x3d4fd23b	0.0507376
42	0x3dda028e	0.106450185
43	0xbe1f4d76	-0.15556893
44	0xbc768614	-0.015046615
45	0xbc918382	-0.017762903
46	0xbd10f1a0	-0.03538668
47	0x3d71e666	0.059057616
48	0xbd54e701	-0.051978115
49	0x3e81d5f2	0.2535854
50	0xbdb05489	-0.08609874
51	0xbe7f3d39	-0.24925698
52	0x3dca10e5	0.098665036
53	0xbd8fb4ff	-0.07016944
54	0xbe243171	-0.16034485
55	0xbd70dc52	-0.058803864
56	0xbd0a6289	-0.033785377
57	0x3e8edd41	0.27903178
58	0xbe78787d	-0.24264713
59	0x3e740ec4	0.23833758
60	0xbcc2efca	-0.023795981
61	0xbd418432	-0.047245212
62	0x3cffea9b	0.031239798
63	0x3d789df7	0.060697522
64	0xbdb7c69e	-0.0897343
65	0x3cc08a76	0.023503523
66	0xbd136d04	-0.035992637
67	0xbaf71725	-0.0018851502
68	0xbe2bbc8f	-0.16771148
69	0xbd92af5b	-0.07162353
70	0x3d61803e	0.055053942
71	0xbd88eeaa	-0.066861466
72	0xbe1957d0	-0.14974904
73	0xbcddcc89	-0.027075069
74	0xbdbcc81f	-0.092178576
75	0x3ddac89f	0.10682797
76	0xbe42c50f	-0.19020484
77	0x3e3966b5	0.18105586
78	0xbd69ac69	-0.05704919
79	0xbe1e9957	-0.15488182
80	0xbe51247c	-0.20424074
81	0xbd13e96a	-0.036111273
82	0x3d7b18f7	0.061303105
83	0x3c70860f	0.0146804
84	0x3e3cd095	0.18438943
85	0xbbd9fbc4	-0.0066523273
86	0x3e162359	0.14661922
87	0xbdf082e7	-0.11743718
88	0x3d1d4d48	0.03840378
89	0xbd9e9ddc	-0.07744953
90	0x3c63551f	0.013875275
91	0x3e5d28cd	0.21597596
92	0x3e8473b1	0.25869516
93	0xbc39061a	-0.011292959
94	0x3d6bc150	0.057557404
95	0xbc41e24f	-0.011833741
96	0xbe6131da	-0.21991673
97	0xbe47bde1	-0.19506027
98	0x3e8fc089	0.2807658
99	0xbd4ee134	-0.05050774
100	0x3e4a5013	0.19757108
101	0xbe3c18f8	-0.183689
102	0x3e1d22e1	0.15345336
103	0xbe54d49f	-0.20784234
104	0xbde0d701	-0.10978509
105	0xbca2b1ef	-0.019860236
106	0xbe2b9d31	-0.16759183
107	0xbd8c66c3	-0.06855538
108	0x3c830227	0.015992237
109	0xbdde0a3c	-0.10841796
110	0xbdc513c5	-0.09622911
111	0xbdb80714	-0.08985725
112	0xbe596d4d	-0.21233101
113	0xbe4267cb	-0.18984906
114	0xbd837107	-0.06418043
115	0x3e2718df	0.16318081
116	0xbe3c37fa	-0.18380728
117	0xbd9d48c9	-0.07679898
118	0x3e889539	0.26676348
119	0xbd9a0d1c	-0.07522032
120	0x3e20750d	0.15669651
121	0x3d0d7244	0.0345328
122	0xbe4ed52c	-0.20198506
123	0xbd4046d2	-0.04694254
124	0xbe3852e7	-0.18000375
125	0x3e5cf896	0.21579203
126	0x3cf651e9	0.030068355
127	0xbe00fb71	-0.12595917
128	0xbc8c5012	-0.017128024
129	0xbd0a83d3	-0.033817124
130	0x3cf632ef	0.030053584
131	0x3da103b6	0.07862036
132	0x3d8bd749	0.06828172
133	0x3d94bce4	0.072625905
134	0x3d72494f	0.059151944
135	0xbd24dd39	-0.040250037
136	0xbd1cbb22	-0.0382644
137	0x3dbb087d	0.091324784
138	0x3d44fc4e	0.04809218
139	0xbd8ff728	-0.07029563
140	0xbd4ccaa6	-0.049997948
141	0x3dbb4550	0.0914408
142	0xbce5300e	-0.027977016
143	0x3cfd6be6	0.030935239
144	0xbd8869ff	-0.06660842
145	0xbd3c690b	-0.045998614
146	0xbd40838e	-0.04700046
147	0x3d0d361c	0.03447543
148	0xbd7708da	-0.060311176
149	0xbd13fc94	-0.03612955
150	0xbc7687cc	-0.015047025
151	0x3cd5661f	0.026049672
152	0x3c665ce6	0.014060235
153	0x3da9b7b5	0.082869925
154	0xbd625c24	-0.055263653
155	0x3ce2b2cc	0.027673148
156	0x3d9022ef	0.07037913
157	0x3d29c525	0.041447777
158	0x3da3c824	0.07997158
159	0x3d5a5f2c	0.05331342
160	0x3c0e1902	0.0086729545
161	0x3c43a02b	0.0119400425
162	0x3ccd8d6e	0.025091853
163	0x3d162db3	0.036664676
164	0x3d23e376	0.040011846
165	0x3d981ed1	0.07427753
166	0x3daafe45	0.08349279
167	0x3d841a01	0.06450272
168	0x3d88495d	0.06654618
169	0xbd2735de	-0.040822856
170	0x3d3c3ce9	0.045956526
171	0x3d0dfa8f	0.03466278
172	0x3bae6080	0.0053215623
173	0xbc033765	-0.008008813
174	0xbd93853d	-0.072031476
175	0xbd866c1f	-0.06563591
176	0x3d95ea1a	0.07320042
177	0xbce76440	-0.028246045
178	0xbc2372a3	-0.009976062
179	0x3d4edbb8	0.05050251
180	0xbc424ef7	-0.011859647
181	0xbd37a28a	-0.044832744
182	0x3d8c1b8b	0.06841191
183	0xbd63b65f	-0.055593845
184	0xbd562392	-0.052280016
185	0x3d4b6693	0.04965837
186	0x3dcba830	0.099441886
187	0xbc7a08a8	-0.015260853
188	0xbd1c5afa	-0.0381727
189	0xbc6498a0	-0.013952404
190	0x3db3b9e2	0.08775689
191	0xbd772a65	-0.060343165
192	0xbc344340	-0.011002362
193	0xbd630862	-0.055427916
194	0x3cef2840	0.029193997
195	0x3d902e43	0.07040074
196	0x3dbd390e	0.09239398
197	0xbd03d973	-0.032189798
198	0x3dc2b991	0.0950805
199	0x3cd6cc1d	0.026220376
200	0x3d15a3a0	0.036532998
201	0x3da68b7c	0.08132073
202	0xbd1554ef	-0.036457952
203	0x3d818768	0.06324655
204	0x3d76a410	0.060215056
205	0x3d3c8836	0.04602834
206	0x3d6a38b2	0.057182975
207	0x3c16d5b9	0.009206229
208	0x3da5f9db	0.08104297
209	0xbd786091	-0.060638968
210	0xbce68e27	-0.028143955
211	0x3d38ffbb	0.04516576
212	0x3c87a626	0.016558718
213	0xbcc3d9ad	-0.023907507
214	0x3c8262f1	0.01591632
215	0x3d88dcfd	0.06682775
216	0xbc8febe9	-0.017568545
217	0xbba6c729	-0.0050896597
218	0xbd7a819b	-0.061158758
219	0xbcb73c17	-0.02236752
220	0x3d828957	0.06373852
221	0xbc489072	-0.01224147
222	0xbd51e7f7	-0.05124661
223	0xbd8c4a7b	-0.068501435
224	0x3df7ecd5	0.12105719
225	0x3dec4513	0.11536612
226	0x3d42cd50	0.047559083
227	0x3d1a82b3	0.0377223
228	0x3d485fb6	0.048919402
229	0x3db45b1a	0.08806439
230	0x3d80c810	0.06288159
231	0x3de81012	0.1133119
232	0x3d34b282	0.04411555
233	0xbc6f9030	-0.014621779
234	0x3dcae342	0.09906627
235	0x3d4b746b	0.04967157
236	0x3d5a90d3	0.05336077
237	0x3dace16a	0.08441432
238	0xbd540834	-0.051765636
239	0x3c658077	0.014007679
240	0x3d98f1e0	0.07468009
241	0x3dc4d63c	0.096111745
242	0xbd8ab94b	-0.06773623
243	0x3cb7d757	0.02244155
244	0x3db5ca01	0.0887642
245	0x3cfa32af	0.030541746
246	0x3d8466ae	0.06464897
247	0x3d3341fe	0.043764107
248	0x3dbb7c53	0.09154572
249	0xbcbc343f	-0.022974132
250	0x3dc23345	0.09482435
251	0x3ccc7366	0.02495737
252	0x3d478b80	0.048717022
253	0xbb85f24f	-0.0040877233
254	0x3d273dac	0.0408303
255	0x3dc96392	0.09833445

mlp.4.bias f4 [4]
0	0xbd07e0b9	-0.033173297
1	0x3d9b75a6	0.07590799
2	0x3dbb18aa	0.09135564
3	0x3dabf4b0	0.0839628
