models/nerf_model_no_depth_1.pth (torch, 103764 bytes, 6 tensors)

mlp.0.weight f4 [128, 63]
000000 e2 8d d6 3d f2 c1 4d 3d 2c c4 1b 3e 28 3c 9d bc
       0.10476281 0.05023379 0.15211552 -0.019193724
000010 82 b9 d6 bd f4 dc 19 3e 7c 5d 6f 3d 1f 9a 50 3c
       -0.104846016 0.15025693 0.058438763 0.012732058
000020 10 9f 97 bd 56 64 0e 3e b3 8f c2 bd 57 af c3 3d
       -0.07403386 0.13905463 -0.09500065 0.09554928
000030 3e 64 32 3d 4c 7f 2d be 4e 58 2f be 11 d8 1e bc
       0.04355263 -0.16943091 -0.1712353 -0.009695069
000040 f0 ad e1 3d 67 7b f5 3d 5f 14 d4 3b 99 8c ff bd
       0.11019504 0.11986428 0.006472155 -0.12477989
000050 87 a6 cf bd 59 e8 5f 3e 58 69 c6 bc e1 c4 fa bc
       -0.101391844 0.21865977 -0.024220154 -0.030611457
000060 31 2c 67 bc c2 01 18 3d 26 24 1c 3d 2c 32 49 bd
       -0.014109657 0.03711105 0.03812041 -0.049120113
000070 49 95 9d 3d 09 55 56 bd db 47 80 3c 3f 7e 95 3c
       0.076944895 -0.05232719 0.015659263 0.018248675
000080 55 6f de bc 38 66 9d 3d ae 5b cc bc 77 ae 4a bd
       -0.027152697 0.07685512 -0.02494606 -0.04948279
000090 50 18 ee bb 56 e0 9e 3d 4c 5f d7 3b 96 56 8a bd
       -0.007266082 0.077576324 0.0065726396 -0.06754796
0000a0 03 a2 23 3d b9 1e c1 bc 21 5d 9e 3c 67 74 a1 bd
       0.03994943 -0.02357422 0.019331517 -0.0788353
0000b0 a9 e1 27 bb 85 a6 5a 3d f8 7e 3b 3d 68 a9 53 bb
       -0.0025616682 0.05338146 0.045775384 -0.003229702
0000c0 f7 82 68 3c 8b 52 9b bd 89 86 41 3c 4d cd 3f bc
       0.014191381 -0.07584103 0.011811861 -0.011706662
0000d0 b6 80 b5 bc 75 70 96 3d aa 5a 8b bd a8 7f 39 3d
       -0.0221561 0.07345668 -0.06804402 0.045287758
0000e0 95 d8 2a 3b 50 85 80 bd 2f 2e a7 3c 30 b3 0e 3c
       0.0026069034 -0.06275427 0.020407764 0.008709714
0000f0 47 6e 84 3c 0f 69 40 3c 02 99 d5 3c e8 f4 99 3b
       0.016165866 0.011743798 0.026073936 0.0046983846
000100 cd 19 97 bd 9d 01 d1 bc 68 81 98 bd 6e 38 e7 3c
       -0.07377968 -0.025513465 -0.07446557 0.02822515
000110 85 4c bd bd 5f c0 cf 3d 79 1d 84 bd c1 5e 86 bd
       -0.092431106 0.10144114 -0.06450934 -0.065610416
000120 4c fc f3 3d f5 a3 52 3d 25 21 91 3d 93 18 93 bd
       0.11913356 0.051425893 0.070864 -0.071824215
000130 5f 22 e3 bd 6e f8 d8 bd a3 45 a0 3d 88 6a b4 3d
       -0.1109054 -0.10594259 0.07825782 0.08809382
000140 aa 27 1e 3d 78 04 e7 bd 72 ff 1f 3d 55 c9 2b 3e
       0.038612045 -0.11280149 0.03906197 0.16776021
000150 98 78 a7 bd c1 83 c8 bd dc 3a b6 3d 7c 5b fa 3d
       -0.08177298 -0.09790755 0.08897945 0.122244805
000160 11 9d 08 be 73 96 bd 3d c0 49 4c bd db 17 71 3d
       -0.13341166 0.092572115 -0.04987502 0.05886064
000170 ae d5 c6 bd 41 74 d3 3c ec 21 70 bd 8c 4e c0 3d
       -0.09708725 0.02581227 -0.0586261 0.093899816
000180 66 1a 00 b9 36 3c cc bc 07 9c b4 bd cf 6d 3b bd
       -0.00012216865 -0.024931055 -0.08818822 -0.04575902
000190 06 cc af 3d 75 3d 79 3b 92 5a f1 bd 5e 42 42 3b
       0.08583836 0.0038031016 -0.11784853 0.0029641609
0001a0 4b a8 6c 3d b3 79 e6 3d 3f 60 d0 bd 0e e2 22 3d
       0.057777684 0.11253681 -0.101746075 0.039766364
0001b0 6c 73 3b bd 5d d9 05 3d 73 ae 24 3d 32 cd d7 3d
       -0.04576437 0.032677997 0.04020543 0.10537185
0001c0 37 39 a4 3d df 26 d3 bd 2c 66 c6 bc 6f 16 27 3d
       0.08018725 -0.103101484 -0.024218641 0.04079288
0001d0 54 48 ec 3d a2 79 40 3d 91 dd f5 bd 5c 81 fd 3c
       0.11537233 0.046990998 -0.12005151 0.030945472
0001e0 a1 f1 34 3d 39 79 36 bd 03 cb d2 bd 75 9a a5 3d
       0.044175748 -0.0445492 -0.10292628 0.08086101
0001f0 74 25 5a bc a8 ca 5e 3d ca e9 b7 3d 50 42 b7 bd
       -0.013314594 0.054392487 0.089801386 -0.08948195
000200 8d 92 c3 3b cc d6 ee 3d 72 a5 f2 3c e4 7c a9 3d
       0.005968398 0.11662063 0.029619906 0.08275774
000210 2d 1a 90 bd 09 92 5d 3d 1e a8 19 be 31 96 86 bd
       -0.07036243 0.054094348 -0.15005538 -0.065716155
000220 8c 2c 51 3d e6 f6 de 3c c1 8d 2f be 9f ff 3c 3d
       0.051067874 0.02721734 -0.17143919 0.046142217
000230 51 8c 85 bd 68 2d ac bd 3c d1 da bd bd 36 f8 3d
       -0.06520904 -0.08407098 -0.106844395 0.121198155
000240 f4 15 de bd 3d cc 23 3d 95 c6 85 bc b3 86 b9 3d
       -0.10844031 0.0399897 -0.016330043 0.09058895
000250 4e 84 e8 bb bf 77 3d 3b bd 7c 96 3c 4f 5a bd 3d
       -0.00709585 0.0028910486 0.018370027 0.092457406
000260 f3 a0 39 bd 2c b2 40 3b 8c 43 ac bd 36 75 08 3e
       -0.04531951 0.0029403074 -0.08411321 0.13325962
000270 72 55 82 bc 89 25 33 3c 48 bb f5 3c 49 1f 1a 3c
       -0.015909884 0.010934242 0.02999653 0.009406873
000280 f3 57 40 bd 91 3e 5f bc 4f 78 80 3d 0b 2a 61 3d
       -0.046958875 -0.013625757 0.06272947 0.054971736
000290 38 77 41 bd b4 b9 d5 bc 56 25 3c 3d 45 ec 65 bd
       -0.047232836 -0.026089527 0.045934044 -0.056133527
0002a0 4d 39 82 3a 30 b2 5a 3d 36 9d 19 bd 4e a7 26 bb
       0.000993529 0.05339259 -0.037503444 -0.0025429311
0002b0 af 82 51 3d 14 95 91 3d a2 87 07 bd 38 0e 87 bd
       0.05115002 0.071085125 -0.033088334 -0.06594509
0002c0 4f 98 8b 3d 16 6e 92 3b cf 59 87 3d 45 b6 eb bc
       0.0681616 0.0044686897 0.066089265 -0.028773436
0002d0 6e d5 5e bd 2d 0e 32 3c 68 a7 3b 3d b8 d2 31 3d
       -0.05440276 0.010867638 0.045813948 0.043413848
0002e0 53 00 a1 bd 45 a2 99 3d 85 a9 9b bd 63 3f 62 bd
       -0.0786139 0.075016536 -0.07600693 -0.05523623
0002f0 44 50 89 3c a8 b1 32 3e a3 8d 60 bd 9c dd 09 3e
       0.016761906 0.17450583 -0.054822575 0.13463444
000300 ad 4e cc 3d ad cd 3c 3d 54 9b d5 3d 77 33 d8 bd
       0.09975944 0.046094585 0.10430017 -0.10556691
000310 e3 fb 8f 3d ad ef 6b bc c2 0c 4b 3c 8b 25 50 3d
       0.070304655 -0.014400405 0.012393178 0.050817054
000320 42 45 08 3e 16 4d 13 be ce 0d 45 3d 0d a2 e9 bd
       0.1330767 -0.14384875 0.04810887 -0.11407862
000330 06 44 1e be 43 f2 41 3c d0 aa 1c 3e b5 66 03 be
       -0.15455636 0.011837545 0.15299535 -0.12832148
000340 07 d4 aa 3d c3 d5 9b 3d ee d0 cc b9 5f fd 14 3d
       0.08341222 0.07609131 -0.00039065577 0.036374446
000350 71 a0 83 3d 81 9d b7 3c 0a 6c 97 3d a7 8c 14 3d
       0.06427086 0.02241397 0.07393654 0.03626695
000360 4f ae ba 3c 7d 1e 73 3b 44 0d d5 3d 92 12 c7 bc
       0.022788195 0.003709703 0.10402921 -0.024300847
000370 7c e4 28 bc fd a3 a9 bd 26 50 86 bd 95 67 86 bd
       -0.010308381 -0.082832314 -0.06558256 -0.065627255
000380 e0 72 c1 3c 53 ea 53 bd 80 01 43 3d ee d3 3b bc
       0.023614347 -0.05173714 0.047608852 -0.011464102
000390 20 6a a4 bd e5 ec 86 ba 73 41 91 3c 68 71 35 bc
       -0.08028054 -0.0010293989 0.017731404 -0.011074401
0003a0 81 8a 3d 3d 97 29 43 3d 17 b2 3c 3c 1a 8d 94 3d
       0.046274666 0.047647085 0.011517069 0.072534755
0003b0 98 a7 23 3c e2 4c 07 3d 7a 08 9c bc 65 f0 25 3b
       0.009988688 0.033032306 -0.01904701 0.0025320288
0003c0 48 07 46 3c 6a 2e 6b 3c ea 6a ac bc 4d da 8d 3c
       0.012086697 0.014354328 -0.021047074 0.017316008
0003d0 9d 52 73 3c 30 51 77 bd ad e3 b3 bb cc 3f af 3c
       0.0148512395 -0.06038016 -0.0054897876 0.021392725
0003e0 b8 7e 4a bd 8e eb 16 3d c9 d1 0a 3b 33 2a 01 bc
       -0.049437255 0.036845736 0.002118217 -0.007883596
0003f0 23 6e 1f 3e 29 e0 e7 bd 32 1a 80 bc 2c 62 3a bd
       0.15569358 -0.11322052 -0.01563749 -0.04550378

mlp.0.bias f4 [128]
000000 cb b4 db bd 8e 03 ca 3d 59 98 27 be ee bc 9d bc
       -0.10727843 0.09863959 -0.1636671 -0.019255128
000010 ce 09 9a bd f8 f0 da bd b1 da e0 bd a6 22 06 be
       -0.07521401 -0.106904924 -0.10979212 -0.13099155
000020 5e 31 e4 ba a1 24 27 be 78 42 b2 bd 4c 83 2c bd
       -0.0017409732 -0.16322567 -0.08704084 -0.042117402
000030 dd e2 52 3d 31 29 a0 bd e9 10 84 bd 3d 9b c8 bd
       0.051485885 -0.07820357 -0.06448538 -0.09795234
000040 46 a6 ea bd db d5 07 be 01 10 2a 3d 53 fa 90 3d
       -0.114574954 -0.13265173 0.04151917 0.070789956
000050 e3 b3 53 bc 4b 80 34 3d 70 49 7b 3c 3b 79 d6 bc
       -0.012921306 0.044067662 0.015337333 -0.026180854
000060 d8 bd 12 3d a1 c7 dd bd 1b 0c 2b bd 6f 67 5c bd
       0.03582558 -0.10829092 -0.04175959 -0.05380958
000070 1a 45 b1 bd e7 23 d8 bd a5 b8 fa bd a9 14 f5 3d
       -0.08655758 -0.10553723 -0.122422494 0.11966831
000080 fe 27 54 3d 41 d8 51 3d b0 07 a7 3d 6f 82 b7 3d
       0.051795952 0.051231626 0.08155763 0.08960425
000090 b3 0f b9 3d 0e 2e 37 bd 39 c1 55 3d d3 ed 03 3e
       0.090361975 -0.044721656 0.052186225 0.12883691
0000a0 b7 9a fe 3d 74 a9 a7 bd 4d c8 ec bd fe f5 0a be
       0.12431853 -0.081866175 -0.11561642 -0.13570401
0000b0 83 20 0f 3d 16 60 1a 3d 8f 3c a0 bd cd 0e dc bd
       0.034943115 0.03768929 -0.07824051 -0.107450105
0000c0 3b c1 95 3d 8a 4d e3 3c 03 32 58 3d 15 6b ec 3c
       0.073122464 0.027746934 0.05278207 0.028859654
0000d0 da e0 12 3d ef 9a e4 bd 40 9b 47 3d 2b e9 0b be
       0.035858966 -0.11162364 0.048732042 -0.13663165
0000e0 b2 b9 c9 3c db 3b bc 3c 77 5b 98 bd c0 28 7c bd
       0.02462468 0.02297776 -0.074393205 -0.0615623
0000f0 e6 6c c4 bd 42 4b 14 bd 92 a6 12 be 23 d6 88 bc
       -0.09591083 -0.036204584 -0.14321354 -0.01670367
000100 25 69 fe bc db bf 0f bd d2 d3 2c bd 23 4d aa bd
       -0.031055996 -0.035095077 -0.042194195 -0.08315494
000110 65 5e fd bd df 29 d4 3d ab ad af bd 98 8e ea bd
       -0.1237152 0.10359549 -0.085780464 -0.11452979
000120 10 42 16 3c 1d 0f 97 3d f7 f0 58 3d 47 03 d8 bd
       0.009171024 0.073759295 0.052964177 -0.105475
000130 1a 6f e6 bd c1 97 f9 3b be 59 49 3d 13 ed ca bd
       -0.1125166 0.0076169674 0.04915785 -0.099084996
000140 97 4a 88 b7 ba 41 2b be b5 3a d6 bd d8 26 a8 3d
       -1.6247197e-05 -0.16724291 -0.10460416 0.08210534
000150 f4 be 4a bd 82 9e ca 3c 98 88 e2 bd 2e ec 15 be
       -0.049498513 0.024733786 -0.110612094 -0.14640877
000160 89 40 70 bd 1e 85 69 bc 06 dd 66 3d 83 9e c0 3d
       -0.058655296 -0.014252929 0.056363128 0.09405234
000170 58 12 5c 3d 0e a5 e1 3c 6b b9 00 be c9 0f 14 3d
       0.05372843 0.027544525 -0.12570731 0.036147866
000180 ee 6d b1 bd ff f9 8b 3d 96 63 7e bb 5b 05 5d 3c
       -0.086635455 0.06834792 -0.0038816682 0.013490046
000190 25 f1 2b be 0f c9 a4 bd 47 ce 0a bd a1 de 01 3c
       -0.16791208 -0.080461614 -0.033888128 0.007926614
0001a0 15 79 23 bc 8a 6d 1e bc cc ed c1 bd 9f ee 53 3b
       -0.009977599 -0.009669671 -0.09469184 0.0032338274
0001b0 ce c5 9a bd 57 3a 92 bd a7 67 da bb 12 f7 c0 bd
       -0.075572595 -0.07140034 -0.0066651884 -0.09422125
0001c0 bc c3 ac bd 42 5a fb 3d 57 26 0b 3d ad 96 a5 bc
       -0.08435771 0.12273075 0.03397211 -0.02021345
0001d0 30 a9 73 bd aa b8 ab 3c 16 e9 c6 bd 2a 9f d5 bd
       -0.05948752 0.020962078 -0.09712426 -0.10430749
0001e0 62 9d d1 3c 21 62 71 bd 66 ee f4 3c e0 27 72 3d
       0.025587741 -0.058931474 0.029898833 0.05912006
0001f0 4d 8f 99 bd b9 9b 77 3c 08 c9 97 bd d4 e0 9d bb
       -0.074980356 0.015112811 -0.074113905 -0.0048180614

mlp.2.weight f4 [128, 128]
000000 03 22 ad bd 75 b7 87 3d a8 32 19 bd 9c c5 2e bb
       -0.08453753 0.066267885 -0.037401825 -0.0026668077
000010 47 6f 69 bc 2f 24 bc bd 67 5c 4f 3d 5a 55 4a 3c
       -0.014247722 -0.09186589 0.05062523 0.012349451
000020 05 02 bf bd 1c a7 64 3d b0 56 4f bd b1 76 f9 bb
       -0.09326557 0.05582343 -0.05061978 -0.007613026
000030 de 14 b4 bd 98 db 8b 3c 60 4d 20 3d 3d 06 14 bd
       -0.087930426 0.017072484 0.03913629 -0.03613876
000040 18 af 28 bc b3 c9 30 bd 9c 23 86 3d e6 49 1a 3a
       -0.010295652 -0.043161105 0.06549761 0.00058856455
000050 6a f0 4f 3d 4d 8d 7c bd 76 19 8d bd 65 50 3d 3d
       0.050766386 -0.061658192 -0.06889622 0.04621925
000060 4a 76 46 bd cc bd 11 3d 14 ef 12 bd 2a f4 0f bc
       -0.048452653 0.035581395 -0.035872534 -0.008786241
000070 fc 42 47 3d 95 f9 a6 bd 30 11 73 3c 1f 59 a5 3b
       0.048647866 -0.08153073 0.014835641 0.0050460245
000080 b8 c7 1e 3c 45 25 4f bb 1f c1 24 3d c3 ba a0 3c
       0.009691171 -0.0031607908 0.040223237 0.019620305
000090 90 28 16 3c 9d 11 aa bd 32 30 8c 3c 6b 2c 8b 3c
       0.009164944 -0.08304141 0.017112825 0.016988954
0000a0 d6 c1 0b bd 3e 45 ae bd a2 f4 8c 3d 69 a4 18 3d
       -0.034120403 -0.08509301 0.068825975 0.03726617
0000b0 a5 88 4e 3d fc 59 82 3d 0b a6 8d bd cc 84 08 bd
       0.050423283 0.063648194 -0.06916436 -0.03332977
0000c0 2e 60 3c bd a9 30 06 bd a5 95 19 bd de 90 62 3d
       -0.04599016 -0.03276125 -0.037496228 0.055313937
0000d0 f2 fb ab 3c 02 db 8f bc 4b d3 c8 bd 7e 12 5a 3c
       0.02099416 -0.017560486 -0.09805926 0.013310073
0000e0 b1 86 9a 3d c3 c5 b6 3b 94 ea c8 3c 54 fd 1f bb
       0.075452216 0.0055777743 0.024525918 -0.002441247
0000f0 56 b8 99 bd d5 90 66 3c 40 a3 5c 3c fe 04 57 3d
       -0.075058624 0.014072617 0.013466656 0.052494995
000100 d8 28 77 bd 7e ad cc 3c 3e a5 86 bc a8 16 56 3d
       -0.060341686 0.024985071 -0.016436215 0.0522677
000110 41 8b c0 bb 0b 5b 2c 3d bf b6 c0 bd 4f d0 e3 bc
       -0.0058759754 0.042079013 -0.09409856 -0.02780929
000120 4c 19 5c 3d 85 b6 91 3d 02 0c a5 bd 78 88 52 3d
       0.053735062 0.07114891 -0.08058931 0.051399678
000130 a8 58 4f 3d 5c 79 75 3c 8f 75 5f bd 90 49 90 bd
       0.05062166 0.014982548 -0.054555472 -0.07045281
000140 05 78 41 bc 9d 3e fd 3a 90 2e 03 3d 68 3f 94 bd
       -0.0118084 0.0019321028 0.032026827 -0.07238656
000150 29 af b4 3c 8b 5a b9 bc c3 e8 b7 bd 6e c4 9b 3c
       0.02205618 -0.022626182 -0.08979943 0.019014563
000160 7c 9e 05 3d 95 f4 79 bd db e2 99 bd 6e 78 ca bd
       0.032621846 -0.061024267 -0.07513972 -0.098862514
000170 f4 d5 83 bc 39 6f ce bc 41 3a 1c bd 30 63 40 3d
       -0.016093232 -0.02519952 -0.038141493 0.046969593
000180 3a 41 6f 3d cf d4 fc 3c d4 bb 0e 3d 93 57 91 bd
       0.058411814 0.030863194 0.034847096 -0.070967816
000190 aa 4e 43 bd c8 df c1 3b 80 35 ac ba 09 9d a6 bd
       -0.04768244 0.0059165694 -0.0013138503 -0.08135421
0001a0 e0 0b 8d 3d 9d 0c e7 3a 94 fe b1 3c d9 2c 93 3b
       0.068870306 0.001762766 0.021727838 0.0044914302
0001b0 dd 76 db 3b b4 b4 73 3d 07 95 97 3d 39 f8 c4 bd
       0.006697519 0.059498504 0.074014716 -0.09617657
0001c0 04 de bb bd 8d 7c 99 bd dc 2d 01 3d 30 ed c9 bd
       -0.091732055 -0.07494459 0.031537876 -0.09859693
0001d0 4e d7 3a bd bf f9 41 3d b6 21 52 bd 9f 3e b8 bd
       -0.045615487 0.047357317 -0.05130168 -0.08996319
0001e0 ed 81 28 bd da e4 50 3c 78 1b 9e bd bf 07 7c bd
       -0.041139532 0.012749875 -0.07720083 -0.061530825
0001f0 cd 65 15 bc 0c 9a 35 3c fe 40 9d bd 75 bf 24 3d
       -0.0091185095 0.011084091 -0.07678412 0.04022165
000200 0a 5b 9e bd c5 23 a9 bb 60 c3 32 3d 53 3e 77 3d
       -0.07732208 -0.0051617348 0.043643355 0.06036217
000210 d3 f3 92 3c 6e f6 e7 bd e9 1d 1d bd f9 0a 2e bb
       0.01793853 -0.113262996 -0.038358603 -0.0026556833
000220 48 32 7d bd 44 4b 80 bd 68 bc 60 bc 18 a6 4e bd
       -0.06181553 -0.06264356 -0.013716795 -0.050451368
000230 04 22 28 bd 13 ad 9e bd 98 2e b9 bd e6 81 4e 3d
       -0.041048065 -0.07747855 -0.0904209 0.05041685
000240 0d 26 4b 3d c1 36 e7 bc eb 63 33 bd 9d 1b 55 3d
       0.049596835 -0.02822435 -0.04379646 0.052028287
000250 9b 68 5d bd 52 63 49 ba 4f 7a 8c bd 4f f0 80 3d
       -0.054054838 -0.00076823414 -0.06859266 0.06295835
000260 55 d0 2b 3d 2b ed ab bd 1b 40 27 3d b3 a1 3f bb
       0.041946728 -0.083948456 0.04083262 -0.0029240667
000270 a2 3b e6 3c 42 6a 27 bd f5 61 e2 3b da c7 21 3d
       0.028104607 -0.04087282 0.00690865 0.039497234
000280 46 1e 4a bd 15 71 5b 3d 34 55 58 3d 96 6f e8 3c
       -0.049345277 0.05357464 0.05281563 0.02837352
000290 80 59 85 3b f5 3c f6 3c 24 ad 5a bc de f7 84 bd
       0.004069507 0.030058363 -0.013346944 -0.064925894
0002a0 e2 b2 df 3b 77 32 22 3c c9 04 d7 3c bf ad 6b 3d
       0.0068267444 0.009899727 0.026247399 0.057538744
0002b0 f6 a6 8e bd 3d bf ca 3c ca 4e e7 bd 0b a2 07 bd
       -0.06965439 0.024749393 -0.11294325 -0.03311352
0002c0 2b c3 02 bd 5f 6d 4c bd 1d 35 b1 bb b6 ba 14 3d
       -0.031924408 -0.049908992 -0.005407943 0.036310874
0002d0 24 a0 dd bd 32 60 f5 3c 84 55 6a bb 10 e7 7c bd
       -0.1082156 0.029953096 -0.0035756538 -0.061743796
0002e0 44 e4 e7 3c 4a 4b 4f 3c 25 17 ec 3c e2 e8 85 3d
       0.028307088 0.012652228 0.02881963 0.065385595
0002f0 75 54 8b 3d 35 19 28 bd bb 46 61 3c c7 7a 4b bc
       0.06803218 -0.041039664 0.013749774 -0.012419409
000300 53 b8 59 bd 21 aa 30 3d 28 7c 4a 3d 5d 17 d3 bd
       -0.0531543 0.043130998 0.04943481 -0.103071906
000310 c3 49 8d b9 7c 03 6b bd eb 87 bf bd 25 37 b5 bc
       -0.00026948572 -0.05737637 -0.09352096 -0.022121022
000320 cb 4a af ba 07 87 17 3d 1a 08 b4 bd fa 78 e9 bd
       -0.001337373 0.036994006 -0.08790608 -0.114000276
000330 95 72 e2 bb f1 78 f5 3b cd 55 37 bd c2 2f 84 3d
       -0.006910632 0.007491224 -0.04475956 0.064544216
000340 b8 75 b2 bd 37 56 b7 3c ad a5 19 3b ba 55 bc bd
       -0.08713859 0.022379978 0.0023444698 -0.091960385
000350 03 64 46 3a b4 49 33 3d a4 65 e6 bc cf e6 17 bd
       0.00075680035 0.04377146 -0.028124638 -0.03708535
000360 2b 04 52 bb e6 41 fb bd e3 38 d9 bd f7 7a 88 bc
       -0.0032045941 -0.122684285 -0.106065534 -0.016660197
000370 bf 9a e9 3c 57 d1 bf 3c d5 e9 da bc e2 fc c8 bc
       0.028516172 0.02341525 -0.026722828 -0.024534646
000380 79 91 0d bd d5 5a 12 3d b7 b0 2f bd ee 03 31 bd
       -0.03456256 0.035731155 -0.042893138 -0.04321664
000390 f7 db 06 3c 40 5e aa 3c ef 9c 8b bc d0 3c 24 bd
       0.008231155 0.020796895 -0.017042605 -0.040097058
0003a0 0b 51 3f 3d 4b a1 1d bd d5 eb 8a bc ed 95 c9 bd
       0.046708148 -0.0384839 -0.016958157 -0.09843049
0003b0 54 02 9b 3a 91 54 92 bd ca 79 f3 3c 04 b5 00 bd
       0.0011826255 -0.07145036 0.02972116 -0.03142263
0003c0 ca b9 e3 bd 15 52 6e bd 00 60 e5 bb 62 7c 2a 3c
       -0.11119421 -0.05818375 -0.0069999695 0.010405632
0003d0 ea a7 76 bd 12 2f 98 bd a9 b8 8e bc 5e 25 50 bd
       -0.06021873 -0.07430853 -0.017422037 -0.050816886
0003e0 6a 21 6e 3d d7 00 7b bd ed 46 6c 3d ed 6e e0 bd
       0.058137335 -0.061280098 0.057684828 -0.109586574
0003f0 3c 1c 36 bd 3d 30 55 bc e4 c2 bf 3c e7 6a 3e bb
       -0.04446052 -0.013011989 0.02340836 -0.0029055418

mlp.2.bias f4 [128]
000000 ef 5a a7 bd 69 6e 7f 3d c9 01 21 3d 17 9b 02 bd
       -0.08171641 0.062361155 0.039308343 -0.031886186
000010 51 6c d8 3d 1d 1b 65 bd 0b 84 c7 bc c6 be 9e 3c
       0.10567535 -0.05593406 -0.024354955 0.019378077
000020 09 c5 93 3d ee 7a e0 3b f7 be a7 bd 0d a0 6e bd
       0.07215316 0.006850592 -0.081907205 -0.058258105
000030 21 1f 20 bd 42 6c c7 bd e6 42 5c bb 4e 00 83 3d
       -0.039092187 -0.097374454 -0.003360921 0.063965425
000040 bf 9e 48 bd 1f 31 55 bb 47 a8 06 3d f4 a8 7e bd
       -0.048979517 -0.00325305 0.032875326 -0.062172845
000050 5e 21 53 bb 7d 65 90 bd 43 82 63 3d 3b 07 95 bd
       -0.0032215933 -0.07050607 0.05554415 -0.0727677
000060 6f 18 08 bc 03 77 09 3d 85 cf df 3c ac 66 01 3e
       -0.008306607 0.033560764 0.027320633 0.12636822
000070 fc bf a3 3d be bf b4 bd 32 da 10 bd b4 76 bd bd
       0.079956025 -0.088256344 -0.035364337 -0.092511564
000080 f4 a3 83 bd a0 b5 0b 3d aa d9 f1 bb a5 0a 71 bd
       -0.06427756 0.034108758 -0.007380684 -0.058848042
000090 b7 1d 92 3a 5a 00 0d bd 2f 91 92 3d d8 ae 85 3d
       0.0011147772 -0.034424163 0.07156598 0.065274894
0000a0 4a 44 92 bd 97 e8 bd bd 55 30 46 bd 55 41 4b bc
       -0.07141931 -0.092728786 -0.048385937 -0.012405713
0000b0 f3 bc 13 bd a5 7f c2 bc d6 4e 6f bd 52 0d 14 bd
       -0.036068868 -0.023742506 -0.058424793 -0.036145516
0000c0 f4 fc 63 bc 2f b6 c7 3d b5 21 36 bd f3 b7 a2 bc
       -0.013915289 0.09751546 -0.04446574 -0.019863104
0000d0 6d c7 e5 3c f3 c6 a1 bd ef 50 87 bd 79 e5 b5 bd
       0.028049195 -0.07899275 -0.06607234 -0.08881659
0000e0 1f d1 40 3c 9d 92 e2 bc e6 b3 97 bd cb 1d af 3d
       0.011768608 -0.027657801 -0.0740736 0.085506044
0000f0 24 66 3a 3d 16 79 bb bd ff ed ad 3a ee 73 7c 3d
       0.045507565 -0.09153955 0.0013269781 0.061633997
000100 8a 2e 7e bc af 6c a8 bd 51 05 6f 3d cb 15 b3 bd
       -0.015514025 -0.08223855 0.05835468 -0.08744391
000110 a0 4d e0 3c 2a 75 c5 bd ea 5e b9 bd 1b 4a 06 3e
       0.027380764 -0.09641488 -0.090513065 0.13114206
000120 0b 9f a3 3d 43 7f ee bc 03 49 85 bd 1d 36 42 bd
       0.079893194 -0.029113417 -0.065080665 -0.047414888
000130 c5 ab c0 3b b4 6b 33 bd 5b 65 88 bc bd 99 6d 3d
       0.0058798515 -0.043803886 -0.016649893 0.058007944
000140 fe fb ac bd c1 fc ad 3d 6f c3 3f bd 43 e1 8f bd
       -0.08446501 0.084954746 -0.04681724 -0.07025387
000150 68 cc 30 3b ee 15 75 3d f6 27 dd 3d ac e0 62 3d
       0.0026977304 0.059835367 0.107986376 0.055390045
000160 4f 88 e5 bc 85 ce d9 bd f0 9f e9 3c 3f 96 6a 3d
       -0.028019099 -0.106350936 0.028518647 0.057272192
000170 16 6f 0f 3d 82 a4 78 bd 44 77 96 bc 9b 1a b8 bd
       0.03501805 -0.060703762 -0.018367417 -0.089894496
000180 c2 48 a2 39 51 8d 66 3a 29 c0 a9 3d 2b 02 bc bc
       0.00030953257 0.00087948615 0.08288605 -0.022950253
000190 97 08 30 bd 52 8d 20 3d 4b 62 93 bd 76 04 01 3d
       -0.042976942 0.039197274 -0.07196482 0.031498395
0001a0 1e 7c c2 bd 51 60 96 3d 67 b3 a8 bc 1f b4 90 bd
       -0.0949633 0.0734259 -0.020593358 -0.07065605
0001b0 37 fb ca bd 5f ea 6a 3d 3b 8a be bd a3 e5 c8 bd
       -0.09911197 0.05735242 -0.09303709 -0.09809425
0001c0 0a 97 22 bd f6 08 86 bb a6 c2 8b bd 56 ab b2 bd
       -0.039694823 -0.0040904237 -0.068242356 -0.08724086
0001d0 7e e1 6c 3d e3 de 1c 3d 66 4e 4b bd 9f d2 b1 bd
       0.057832234 0.0382985 -0.049635313 -0.08682751
0001e0 e6 90 7a 3d c1 97 dd bc d6 cb 60 3c cc ca b7 bd
       0.061173342 -0.027049901 0.013720473 -0.08974227
0001f0 e5 da ba bd 8c d0 15 bd df 52 ce bd c8 05 71 bd
       -0.09123782 -0.03657584 -0.100744 -0.058843404

mlp.4.weight f4 [4, 128]
000000 82 72 20 bc d2 a5 8e 3d 8d 12 cb 3c fa 2a 36 3b
       -0.009792926 0.069652215 0.02478912 0.0027796612
000010 c8 b8 51 bd 3b e7 5e bd 25 8d 85 bd 86 a1 15 bc
       -0.05120161 -0.054419737 -0.06521062 -0.0091327485
000020 3c bf 3a bd 76 4b 00 3b bf 33 6e bd 12 fa 92 bd
       -0.04559253 0.0019576228 -0.058154818 -0.071766034
000030 00 bb b1 bd dc c1 8d 3c 0e 39 e8 3d 44 52 d7 bd
       -0.086782455 0.017304353 0.11339007 -0.10513738
000040 c5 be 72 bd d8 ce 98 3c dd c9 14 3d de 9d 75 3d
       -0.059263963 0.018653318 0.036325324 0.059965007
000050 07 f8 6c 3d 24 d6 f6 bd 20 0e 68 bd b3 5f c9 3b
       0.057853725 -0.12052563 -0.056654096 0.0061454414
000060 08 a0 57 3b a8 f7 34 bd 60 8b 2c bd a9 54 64 3c
       0.0032901783 -0.044181496 -0.042125106 0.0139362
000070 08 b4 a6 bd c9 2f ab bc f8 cb 98 3b b3 9a f8 bc
       -0.08139807 -0.02089681 0.004662987 -0.030347204
000080 a1 94 97 3d 21 6b 55 3d 8a 70 d6 3b bb e6 82 3d
       0.074013956 0.05210412 0.0065441774 0.063916646
000090 98 4a 40 bd 16 02 ba bd f4 d9 52 bc 8c b9 b8 bd
       -0.04694614 -0.09082429 -0.012869347 -0.09019765
0000a0 4a be 3e 3d 68 66 22 3d b5 fb 53 bd 01 25 59 3d
       0.046568193 0.039648443 -0.05175372 0.053013805
0000b0 98 dc 0c bd af c9 3f bc 6d b3 f6 bd 55 7d c3 bd
       -0.034390062 -0.0117058 -0.120459415 -0.095453896
0000c0 5b ab 4a bd 70 ef 05 be b6 c5 b1 3d 52 7e de bd
       -0.049479824 -0.1307962 0.086802885 -0.108639374
0000d0 73 0e a3 bd 1e c1 97 bd 07 d7 8d 3d d7 b3 86 3d
       -0.0796174 -0.07409881 0.06925779 0.065772705
0000e0 0b 84 d4 3c 45 30 ba 3d e3 61 8c 3d 66 48 80 bc
       0.02594187 0.09091238 0.06854608 -0.015659522
0000f0 a3 e3 28 bd 25 8b db 3c f4 bf a7 bc 73 4d 1c 3d
       -0.041232716 0.026799748 -0.020477273 0.0381598
000100 8c 37 ed bd 39 99 13 3d a8 2a 8e 3d 80 94 72 bc
       -0.1158286 0.036034796 0.0694173 -0.014805913
000110 7a fb 41 bd 2c e5 03 bc f7 7e 53 3d 0b 18 26 bd
       -0.047358967 -0.008050244 0.051634755 -0.040550273
000120 18 aa 8a bd de c1 8f 3d 2b 78 a2 bb 39 f4 94 bb
       -0.06770724 0.07019399 -0.004958173 -0.004545715
000130 b1 bf 4a 3d 08 ac 13 bd 11 27 73 bd 76 3c d5 bc
       0.049499217 -0.036052734 -0.05936343 -0.026029807
000140 c2 b0 aa 3d e9 81 f2 3c 97 6d fe ba ac 99 6a bc
       0.08334495 0.029602962 -0.0019411322 -0.014318865
000150 f6 a2 85 3c a7 6d 5f 3c 15 49 2b bb 15 75 41 bc
       0.016313057 0.013636983 -0.002613609 -0.0118077
000160 0f 1b d3 bd 44 1e 28 bd 40 ac ab bd 0d 08 d3 bc
       -0.103078954 -0.04104449 -0.083824635 -0.025760675
000170 10 50 13 be da 6f 86 bd cf f3 0c 3c 02 7e 33 bd
       -0.1438601 -0.06564303 0.00860305 -0.043821342
000180 4c 2c 31 3d f8 54 40 bc 3e f2 ee bd 5d 5f 14 be
       0.043255135 -0.011739008 -0.11667298 -0.14489503
000190 52 6a 4d bd 6e 6b 99 bc d7 ed 27 bd 08 ec 09 bd
       -0.050150223 -0.018727984 -0.040998306 -0.033672363
0001a0 ea 72 a7 3d f7 29 b2 3d 4b ba d3 bd bf ab 8c bd
       0.08176215 0.086994104 -0.10338267 -0.068686955
0001b0 c5 69 8b 3d 3f 02 0d 3b cd fd 9c 3c 4c 58 43 3d
       0.06807283 0.0021516231 0.01916399 0.04769163
0001c0 fc aa 84 bd 0e 80 16 3d d4 38 3e 3d 07 b5 67 3d
       -0.06477925 0.036743216 0.046440914 0.056569126
0001d0 73 c4 97 bb e6 ed 49 3d b0 1b 78 bc a7 6c 8f bd
       -0.004631573 0.049299143 -0.01514332 -0.07003146
0001e0 56 f3 7a 3c 2f 72 38 bd 98 8f 84 bc e8 e1 47 bd
       0.015316805 -0.04503077 -0.016181752 -0.048799425
0001f0 20 0e 43 3d fc 21 8f 3c 17 78 26 3c 95 10 ad 3d
       0.047620893 0.01747226 0.010160468 0.084504284
000200 bb 28 58 bd ed c7 23 3d fa 4b 82 3d 00 e7 70 3d
       -0.05277322 0.039985586 0.06362148 0.05881405
000210 ca 22 6d 3d 1c da a9 3d f3 f6 4e bc 25 bf 7b bd
       0.057894506 0.08293554 -0.0126321195 -0.061461587
000220 16 1e 94 3d 6e 37 03 bd d5 ec 2f bd 47 3e bc 3d
       0.07232301 -0.032035284 -0.04295047 0.09191566
000230 a5 a7 45 3d 4a 56 5f 3d 73 14 ad bc 85 6a 1b 3d
       0.04825558 0.05452565 -0.021127915 0.03794338
000240 53 dd be 3d ee 0e 55 bb 7e fb 51 bd 28 5d 81 bb
       0.09319558 -0.003251012 -0.051265232 -0.0039478727
000250 f4 2c f4 bb 01 38 ed 3a 2b 25 8b 3d 18 74 2b bd
       -0.007451648 0.0018098356 0.067941986 -0.041858763
000260 a4 36 b2 3d 01 a9 2e bd c0 a3 32 3d 6c 73 1e 3c
       0.08701828 -0.042641643 0.043613195 0.009671073
000270 3d 5c f4 39 a1 96 a5 bb c1 b0 3a 3c ef 2b 57 3d
       0.0004660803 -0.0050533568 0.0113946805 0.052532133
000280 c8 9b b1 bb 0d 2d 22 bd c4 52 9f 3d 89 0f 0b bd
       -0.005420182 -0.039593745 0.07779458 -0.033950362
000290 28 f8 5e 3c 95 15 5b bc ac 9c 12 ba f7 af 16 3d
       0.01360897 -0.013371845 -0.0005592804 0.036788907
0002a0 82 31 9b 3d 5a ac df bc 24 0b 42 3d 1c 3d a1 3d
       0.07577802 -0.027303863 0.047373906 0.07872984
0002b0 78 34 9c 3b 3a f8 55 3d 72 04 26 3d 33 0d 67 bd
       0.004766997 0.05223868 0.040531583 -0.056409072
0002c0 3d 89 69 bd 22 58 ce 3d f9 5f 1a 3d 2e 87 36 3d
       -0.057015646 0.10075404 0.037689183 0.04456251
0002d0 a1 47 8a bd 06 fd ab bc 43 2a 59 bc 14 1d a1 3a
       -0.067519434 -0.020994674 -0.013254705 0.0012291991
0002e0 c3 e3 8a bd d5 0e 6b 3c c8 11 c2 bb 60 db a4 bc
       -0.06781723 0.014346798 -0.00592253 -0.020124137
0002f0 f7 dc f7 3c 82 b8 c4 b8 d1 68 f5 3c 0e 52 93 3d
       0.030256731 -9.3803756e-05 0.029957207 0.07193385
000300 50 9e 84 3d 95 de 2a bd 4c 02 44 bc 3f ca 71 3d
       0.06475508 -0.041716177 -0.011963438 0.059030768
000310 1e 12 89 bb 2a 02 fb 3b 1f 8c 34 3d d5 d5 95 3d
       -0.004183068 0.00766017 0.044078942 0.07316176
000320 4a 48 6d bb 13 8e 16 bc 9f a6 56 bd 90 99 a5 3d
       -0.0036206418 -0.009189147 -0.052404996 0.0808593
000330 a0 ad bd bc eb a8 f1 bb 65 53 b7 bb b3 06 0d 3d
       -0.02315408 -0.007374873 -0.005594658 0.034430217
000340 f3 cd a5 3d 5f 44 d2 3c ef a3 db 3c 1e ee 48 bc
       0.08095922 0.025667368 0.026811568 -0.012263803
000350 1e 5f 32 3d 12 25 49 3c 7f 34 ac 3d 83 aa f6 bb
       0.043547742 0.012276905 0.0840845 -0.007527651
000360 75 b7 e1 3b 3b fa 53 bd 15 21 d4 bb 7a de c2 3c
       0.006888325 -0.05175231 -0.0064736702 0.023787726
000370 d6 95 38 bc a9 ce f5 3c 60 0e cd bc b4 8d 6a bd
       -0.011266192 0.03000577 -0.025031269 -0.057264045
000380 5d 9a 0f 3d 73 ed 67 3b df 4b fa bc db a8 84 3d
       0.03505932 0.0035389333 -0.030553756 0.06477519
000390 18 e4 89 3c f7 24 5d bd 9c cf 88 bd 71 be ac 3b
       0.016832396 -0.05399033 -0.06680223 0.005271726
0003a0 5e 5f e3 bc 2b eb 7c 3d a4 0f ac 3c 73 85 95 3d
       -0.027755436 0.06174771 0.021003552 0.07300844
0003b0 2d 4f 8c b9 54 ce 1a bd 1a 8e 86 3c b0 67 56 3d
       -0.0002676187 -0.037794426 0.016425181 0.052344978
0003c0 d7 11 23 3c 97 c4 ea bc 85 3f 36 bd 93 be c3 3d
       0.009952984 -0.028658194 -0.04449417 0.095578335
0003d0 c3 a1 36 3a 18 44 ca 3c c7 a6 8f 3c f1 3a 06 bd
       0.00069668534 0.024690673 0.01753558 -0.032771055
0003e0 70 4e df 3d 09 af 5b 3c 7e 75 0a bd c9 6d 59 3c
       0.10903633 0.013408431 -0.033803456 0.013270804
0003f0 9f f1 56 bd e7 5a 96 3d 6a e8 b5 bc 13 39 8c 3d
       -0.05247652 0.07341557 -0.02220555 0.068468235

mlp.4.bias f4 [4]
000000 df e7 53 bd 3d ed 87 3d 74 29 de 3c a3 db 8c 3d
       -0.0517348 0.066370465 0.027119376 0.0687783
